…
=================================================================================\r\nLayer (type:depth-idx)                                  Output Shape              Param #\r\n=========================================================================================================\r\nFPN                                                     --                        --\r\nFPNDecoder: 1                                         --                        --\r\n    ModuleList: 2-1                                  --                        --\r\nMobileNetV3Encoder: 1-1                               [1, 3, 256, 256]          --\r\n    MobileNetV3Features: 2                           --                        --\r\n        Conv2dSame: 3-1                             [1, 16, 128, 128]         432\r\n        BatchNorm2d: 3-2                            [1, 16, 128, 128]         32\r\n        Hardswish: 3-3                              [1, 16, 128, 128]         --\r\nFPNDecoder: 1-2                                       [1, 128, 64, 64]          --\r\n    Conv2d: 2-2                                      [1, 256, 8, 8]            147,712\r\n    FPNBlock: 2-3                                    [1, 256, 16, 16]          --\r\n        Conv2d: 3-4                                 [1, 256, 16, 16]          12,544\r\n    FPNBlock: 2-4                                    [1, 256, 32, 32]          --\r\n        Conv2d: 3-5                                 [1, 256, 32, 32]          6,400\r\n    FPNBlock: 2-5                                    [1, 256, 64, 64]          --\r\n        Conv2d: 3-6                                 [1, 256, 64, 64]          4,352\r\n    ModuleList: 2-1                                  --                        --\r\n        SegmentationBlock: 3-7                      [1, 128, 64, 64]          590,592\r\n        SegmentationBlock: 3-8                      [1, 128, 64, 64]          442,880\r\n        SegmentationBlock: 3-9                      [1, 128, 64, 64]          295,168\r\n        SegmentationBlock: 3-10                     [1, 128, 64, 64]          295,168\r\n    MergeBlock: 2-6                                  [1, 128, 64, 64]          --\r\n    Dropout2d: 2-7                                   [1, 128, 64, 64]          --\r\nSegmentationHead: 1-3                                 [1, 1, 256, 256]          --\r\n    Conv2d: 2-8                                      [1, 1, 64, 64]            129\r\n    UpsamplingBilinear2d: 2-9                        [1, 1, 256, 256]          --\r\n    Activation: 2-10                                 [1, 1, 256, 256]          --\r\n        Sigmoid: 3-11                               [1, 1, 256, 256]          --\r\n=========================================================================================================\r\nTotal params: 2,721,953\r\nTrainable params: 2,721,953\r\nNon-trainable params: 0\r\nTotal mult-adds (G): 2.05\r\n=========================================================================================================\r\nInput size (MB): 0.79\r\nForward/backward pass size (MB): 56.58\
…
