{
  "total_count": 1027,
  "incomplete_results": false,
  "items": [
    {
      "url": "https://api.github.com/repos/tensorflow/tensorflow/issues/46285",
      "repository_url": "https://api.github.com/repos/tensorflow/tensorflow",
      "labels_url": "https://api.github.com/repos/tensorflow/tensorflow/issues/46285/labels{/name}",
      "comments_url": "https://api.github.com/repos/tensorflow/tensorflow/issues/46285/comments",
      "events_url": "https://api.github.com/repos/tensorflow/tensorflow/issues/46285/events",
      "html_url": "https://github.com/tensorflow/tensorflow/issues/46285",
      "id": 782040797,
      "node_id": "MDU6SXNzdWU3ODIwNDA3OTc=",
      "number": 46285,
      "title": "'tf.Size' op is neither a custom op nor a flex op",
      "user": {
        "login": "RenoLooijmans",
        "id": 73367951,
        "node_id": "MDQ6VXNlcjczMzY3OTUx",
        "avatar_url": "https://avatars.githubusercontent.com/u/73367951?v=4",
        "gravatar_id": "",
        "url": "https://api.github.com/users/RenoLooijmans",
        "html_url": "https://github.com/RenoLooijmans",
        "followers_url": "https://api.github.com/users/RenoLooijmans/followers",
        "following_url": "https://api.github.com/users/RenoLooijmans/following{/other_user}",
        "gists_url": "https://api.github.com/users/RenoLooijmans/gists{/gist_id}",
        "starred_url": "https://api.github.com/users/RenoLooijmans/starred{/owner}{/repo}",
        "subscriptions_url": "https://api.github.com/users/RenoLooijmans/subscriptions",
        "organizations_url": "https://api.github.com/users/RenoLooijmans/orgs",
        "repos_url": "https://api.github.com/users/RenoLooijmans/repos",
        "events_url": "https://api.github.com/users/RenoLooijmans/events{/privacy}",
        "received_events_url": "https://api.github.com/users/RenoLooijmans/received_events",
        "type": "User",
        "site_admin": false
      },
      "labels": [
        {
          "id": 473184161,
          "node_id": "MDU6TGFiZWw0NzMxODQxNjE=",
          "url": "https://api.github.com/repos/tensorflow/tensorflow/labels/type:support",
          "name": "type:support",
          "color": "159b2e",
          "default": false,
          "description": "Support issues"
        },
        {
          "id": 750616506,
          "node_id": "MDU6TGFiZWw3NTA2MTY1MDY=",
          "url": "https://api.github.com/repos/tensorflow/tensorflow/labels/comp:lite",
          "name": "comp:lite",
          "color": "0052cc",
          "default": false,
          "description": "TF Lite related issues"
        },
        {
          "id": 2477739347,
          "node_id": "MDU6TGFiZWwyNDc3NzM5MzQ3",
          "url": "https://api.github.com/repos/tensorflow/tensorflow/labels/TF%202.4",
          "name": "TF 2.4",
          "color": "5319e7",
          "default": false,
          "description": "for issues related to TF 2.4"
        }
      ],
      "state": "closed",
      "locked": false,
      "assignee": {
        "login": "amahendrakar",
        "id": 57165142,
        "node_id": "MDQ6VXNlcjU3MTY1MTQy",
        "avatar_url": "https://avatars.githubusercontent.com/u/57165142?v=4",
        "gravatar_id": "",
        "url": "https://api.github.com/users/amahendrakar",
        "html_url": "https://github.com/amahendrakar",
        "followers_url": "https://api.github.com/users/amahendrakar/followers",
        "following_url": "https://api.github.com/users/amahendrakar/following{/other_user}",
        "gists_url": "https://api.github.com/users/amahendrakar/gists{/gist_id}",
        "starred_url": "https://api.github.com/users/amahendrakar/starred{/owner}{/repo}",
        "subscriptions_url": "https://api.github.com/users/amahendrakar/subscriptions",
        "organizations_url": "https://api.github.com/users/amahendrakar/orgs",
        "repos_url": "https://api.github.com/users/amahendrakar/repos",
        "events_url": "https://api.github.com/users/amahendrakar/events{/privacy}",
        "received_events_url": "https://api.github.com/users/amahendrakar/received_events",
        "type": "User",
        "site_admin": false
      },
      "assignees": [
        {
          "login": "amahendrakar",
          "id": 57165142,
          "node_id": "MDQ6VXNlcjU3MTY1MTQy",
          "avatar_url": "https://avatars.githubusercontent.com/u/57165142?v=4",
          "gravatar_id": "",
          "url": "https://api.github.com/users/amahendrakar",
          "html_url": "https://github.com/amahendrakar",
          "followers_url": "https://api.github.com/users/amahendrakar/followers",
          "following_url": "https://api.github.com/users/amahendrakar/following{/other_user}",
          "gists_url": "https://api.github.com/users/amahendrakar/gists{/gist_id}",
          "starred_url": "https://api.github.com/users/amahendrakar/starred{/owner}{/repo}",
          "subscriptions_url": "https://api.github.com/users/amahendrakar/subscriptions",
          "organizations_url": "https://api.github.com/users/amahendrakar/orgs",
          "repos_url": "https://api.github.com/users/amahendrakar/repos",
          "events_url": "https://api.github.com/users/amahendrakar/events{/privacy}",
          "received_events_url": "https://api.github.com/users/amahendrakar/received_events",
          "type": "User",
          "site_admin": false
        }
      ],
      "milestone": null,
      "comments": 10,
      "created_at": "2021-01-08T11:08:16Z",
      "updated_at": "2021-03-16T20:14:55Z",
      "closed_at": "2021-01-12T22:35:16Z",
      "author_association": "NONE",
      "active_lock_reason": null,
      "body": "### System information\r\n\r\n-   **Have I written custom code (as opposed to using a stock example script\r\n    provided in TensorFlow)**: No\r\n-   **OS Platform and Distribution (e.g., Linux Ubuntu 16.04)**: Windows 10.0.18363\r\n-   **Mobile device (e.g. iPhone 8, Pixel 2, Samsung Galaxy) if the issue\r\n    happens on a mobile device**: n/a\r\n-   **TensorFlow installed from (source or binary)**: binary\r\n-   **TensorFlow version (use command below)**: tensorflow-2.4.0\r\n-   **Python version**: 3.8.5\r\n-   **Bazel version (if compiling from source)**: n/a\r\n-   **GCC/Compiler version (if compiling from source)**: n/a\r\n-   **CUDA/cuDNN version**: CUDA 11.0 / CuDNN 8.0.5\r\n-   **GPU model and memory**: Quadro P2000 4GB\r\n-   **Exact command to reproduce**: Run \"Convert a SavedModel\" from https://www.tensorflow.org/lite/convert\r\n\r\n### Describe the problem\r\nFor some unknown reason (to me) I am no longer able to convert a model to TFLite for usage on a Raspberry Pi. When I run the script mentioned in the link above, the following error appears:\r\n\r\n```\r\nloc(callsite(callsite(\"Postprocessor/BatchMultiClassNonMaxSuppression/MultiClassNonMaxSuppression/SortByField_1/Size@__inference___call___23519\" at \"StatefulPartitionedCall@__inference_signature_wrapper_25508\") at \"StatefulPartitionedCall\")): error: 'tf.Size' op is neither a custom op nor a flex op\r\nerror: failed while converting: 'main': Ops that can be supported by the flex runtime (enabled via setting the -emit-select-tf-ops flag):\r\n        tf.Size {device = \"\"}\r\nTraceback (most recent call last):\r\n  File \"C:\\Users\\Reno\\.conda\\envs\\tensorflow\\lib\\site-packages\\tensorflow\\lite\\python\\convert.py\", line 210, in toco_convert_protos\r\n    model_str = wrap_toco.wrapped_toco_convert(model_flags_str,\r\n  File \"C:\\Users\\Reno\\.conda\\envs\\tensorflow\\lib\\site-packages\\tensorflow\\lite\\python\\wrap_toco.py\", line 32, in wrapped_toco_convert\r\n    return _pywrap_toco_api.TocoConvert(\r\nException: <unknown>:0: error: loc(callsite(callsite(\"Postprocessor/BatchMultiClassNonMaxSuppression/MultiClassNonMaxSuppression/SortByField_1/Size@__inference___call___23519\" at \"StatefulPartitionedCall@__inference_signature_wrapper_25508\") at \"StatefulPartitionedCall\")): 'tf.Size' op is neither a custom op nor a flex op\r\n<unknown>:0: note: loc(\"StatefulPartitionedCall\"): called from\r\n<unknown>:0: error: failed while converting: 'main': Ops that can be supported by the flex runtime (enabled via setting the -emit-select-tf-ops flag):\r\n        tf.Size {device = \"\"}\r\n \r\n \r\nDuring handling of the above exception, another exception occurred:\r\n \r\nTraceback (most recent call last):\r\n  File \"convert_to_tflite_v2.py\", line 7, in <module>\r\n    tflite_model = converter.convert()\r\n  File \"C:\\Users\\Reno\\.conda\\envs\\tensorflow\\lib\\site-packages\\tensorflow\\lite\\python\\lite.py\", line 739, in convert\r\n    result = _convert_saved_model(**converter_kwargs)\r\n  File \"C:\\Users\\Reno\\.conda\\envs\\tensorflow\\lib\\site-packages\\tensorflow\\lite\\python\\convert.py\", line 632, in convert_saved_model\r\n    data = toco_convert_protos(\r\n  File \"C:\\Users\\Reno\\.conda\\envs\\tensorflow\\lib\\site-packages\\tensorflow\\lite\\python\\convert.py\", line 216, in toco_convert_protos\r\n    raise ConverterError(str(e))\r\ntensorflow.lite.python.convert.ConverterError: <unknown>:0: error: loc(callsite(callsite(\"Postprocessor/BatchMultiClassNonMaxSuppression/MultiClassNonMaxSuppression/SortByField_1/Size@__inference___call___23519\" at \"StatefulPartitionedCall@__inference_signature_wrapper_25508\") at \"StatefulPartitionedCall\")): 'tf.Size' op is neither a custom op nor a flex op\r\n<unknown>:0: note: loc(\"StatefulPartitionedCall\"): called from\r\n<unknown>:0: error: failed while converting: 'main': Ops that can be supported by the flex runtime (enabled via setting the -emit-select-tf-ops flag):\r\n        tf.Size {device = \"\"}\r\n```\r\n\r\nI have read more issues regarding Flex Ops, unfortunately I haven't found a suitable solution as of now. I tried adding the following line:\r\n\r\n```\r\nconverter.target_spec.supported_ops = [tf.lite.OpsSet.TFLITE_BUILTINS, tf.lite.OpsSet.SELECT_TF_OPS]\r\n```\r\n\r\nWhen this line is present, the model converts very smoothly to a TFlite model, but then the TFLite model doesn't work anymore on a Raspberry Pi, with the following error: \r\n\r\n```\r\nUnexpected failure when preparing tensor allocations: Regular TensorFlow ops are not supported by this interpreter. Make sure you apply/link the Flex delegate before inference.\r\n```\r\n\r\nI never had this before for any other model. The model works perfectly fine with regular TensorFlow. It's just the TFlite part which causes issues for me.\r\n\r\nI am using a pre-trained model (SSD MobileNet V2 FPNLite 320x320) from the Detection Model Zoo at https://github.com/tensorflow/models/blob/master/research/object_detection/g3doc/tf2_detection_zoo.md\r\n\r\n### Source code / logs\r\nI started off by installing a fresh install of Tensorflow. See:\r\n\r\n```\r\n(base) C:\\Users\\Reno>conda activate tensorflow\r\n \r\n(tensorflow) C:\\Users\\Reno>pip cache purge\r\nERROR: No matching packages\r\n \r\n(tensorflow) C:\\Users\\Reno>pip list\r\nPackage      Version\r\n------------ -------------------\r\ncertifi      2020.12.5\r\npip          20.3.3\r\nsetuptools   51.0.0.post20201207\r\nwheel        0.36.2\r\nwincertstore 0.2\r\n \r\n(tensorflow) C:\\Users\\Reno>pip install --upgrade tensorflow\r\nCollecting tensorflow\r\n  Downloading tensorflow-2.4.0-cp38-cp38-win_amd64.whl (370.7 MB)\r\n     |████████████████████████████████| 370.7 MB 21 kB/s\r\nRequirement already satisfied: wheel~=0.35 in c:\\users\\reno\\.conda\\envs\\tensorflow\\lib\\site-packages (from tensorflow) (0.36.2)\r\nCollecting gast==0.3.3\r\n  Downloading gast-0.3.3-py2.py3-none-any.whl (9.7 kB)\r\nCollecting absl-py~=0.10\r\n  Downloading absl_py-0.11.0-py3-none-any.whl (127 kB)\r\n     |████████████████████████████████| 127 kB 2.2 MB/s\r\nCollecting astunparse~=1.6.3\r\n  Downloading astunparse-1.6.3-py2.py3-none-any.whl (12 kB)\r\nCollecting flatbuffers~=1.12.0\r\n  Downloading flatbuffers-1.12-py2.py3-none-any.whl (15 kB)\r\nCollecting google-pasta~=0.2\r\n  Downloading google_pasta-0.2.0-py3-none-any.whl (57 kB)\r\n     |████████████████████████████████| 57 kB 1.5 MB/s\r\nCollecting grpcio~=1.32.0\r\n  Downloading grpcio-1.32.0-cp38-cp38-win_amd64.whl (2.6 MB)\r\n     |████████████████████████████████| 2.6 MB 2.2 MB/s\r\nCollecting h5py~=2.10.0\r\n  Downloading h5py-2.10.0-cp38-cp38-win_amd64.whl (2.5 MB)\r\n     |████████████████████████████████| 2.5 MB 803 kB/s\r\nCollecting keras-preprocessing~=1.1.2\r\n  Downloading Keras_Preprocessing-1.1.2-py2.py3-none-any.whl (42 kB)\r\n     |████████████████████████████████| 42 kB 3.2 MB/s\r\nCollecting numpy~=1.19.2\r\n  Downloading numpy-1.19.5-cp38-cp38-win_amd64.whl (13.3 MB)\r\n     |████████████████████████████████| 13.3 MB 3.3 MB/s\r\nCollecting opt-einsum~=3.3.0\r\n  Downloading opt_einsum-3.3.0-py3-none-any.whl (65 kB)\r\n     |████████████████████████████████| 65 kB 2.2 MB/s\r\nCollecting protobuf>=3.9.2\r\n  Downloading protobuf-3.14.0-py2.py3-none-any.whl (173 kB)\r\n     |████████████████████████████████| 173 kB 2.2 MB/s\r\nCollecting six~=1.15.0\r\n  Downloading six-1.15.0-py2.py3-none-any.whl (10 kB)\r\nCollecting tensorboard~=2.4\r\n  Downloading tensorboard-2.4.0-py3-none-any.whl (10.6 MB)\r\n     |████████████████████████████████| 10.6 MB 2.2 MB/s\r\nRequirement already satisfied: setuptools>=41.0.0 in c:\\users\\reno\\.conda\\envs\\tensorflow\\lib\\site-packages (from tensorboard~=2.4->tensorflow) (51.0.0.post20201207)\r\nCollecting google-auth<2,>=1.6.3\r\n  Downloading google_auth-1.24.0-py2.py3-none-any.whl (114 kB)\r\n     |████████████████████████████████| 114 kB 2.2 MB/s\r\nCollecting cachetools<5.0,>=2.0.0\r\n  Downloading cachetools-4.2.0-py3-none-any.whl (12 kB)\r\nCollecting google-auth-oauthlib<0.5,>=0.4.1\r\n  Downloading google_auth_oauthlib-0.4.2-py2.py3-none-any.whl (18 kB)\r\nCollecting markdown>=2.6.8\r\n  Downloading Markdown-3.3.3-py3-none-any.whl (96 kB)\r\n     |████████████████████████████████| 96 kB 3.2 MB/s\r\nCollecting pyasn1-modules>=0.2.1\r\n  Downloading pyasn1_modules-0.2.8-py2.py3-none-any.whl (155 kB)\r\n     |████████████████████████████████| 155 kB 2.2 MB/s\r\nCollecting pyasn1<0.5.0,>=0.4.6\r\n  Downloading pyasn1-0.4.8-py2.py3-none-any.whl (77 kB)\r\n     |████████████████████████████████| 77 kB 2.6 MB/s\r\nCollecting requests<3,>=2.21.0\r\n  Downloading requests-2.25.1-py2.py3-none-any.whl (61 kB)\r\n     |████████████████████████████████| 61 kB 2.0 MB/s\r\nRequirement already satisfied: certifi>=2017.4.17 in c:\\users\\reno\\.conda\\envs\\tensorflow\\lib\\site-packages (from requests<3,>=2.21.0->tensorboard~=2.4->tensorflow) (2020.12.5)\r\nCollecting chardet<5,>=3.0.2\r\n  Downloading chardet-4.0.0-py2.py3-none-any.whl (178 kB)\r\n     |████████████████████████████████| 178 kB 2.2 MB/s\r\nCollecting idna<3,>=2.5\r\n  Downloading idna-2.10-py2.py3-none-any.whl (58 kB)\r\n     |████████████████████████████████| 58 kB 2.0 MB/s\r\nCollecting requests-oauthlib>=0.7.0\r\n  Downloading requests_oauthlib-1.3.0-py2.py3-none-any.whl (23 kB)\r\nCollecting oauthlib>=3.0.0\r\n  Downloading oauthlib-3.1.0-py2.py3-none-any.whl (147 kB)\r\n     |████████████████████████████████| 147 kB 2.2 MB/s\r\nCollecting rsa<5,>=3.1.4\r\n  Downloading rsa-4.6-py3-none-any.whl (47 kB)\r\n     |████████████████████████████████| 47 kB 3.2 MB/s\r\nCollecting tensorboard-plugin-wit>=1.6.0\r\n  Downloading tensorboard_plugin_wit-1.7.0-py3-none-any.whl (779 kB)\r\n     |████████████████████████████████| 779 kB 2.2 MB/s\r\nCollecting tensorflow-estimator<2.5.0,>=2.4.0rc0\r\n  Downloading tensorflow_estimator-2.4.0-py2.py3-none-any.whl (462 kB)\r\n     |████████████████████████████████| 462 kB 2.2 MB/s\r\nCollecting termcolor~=1.1.0\r\n  Downloading termcolor-1.1.0.tar.gz (3.9 kB)\r\nCollecting typing-extensions~=3.7.4\r\n  Downloading typing_extensions-3.7.4.3-py3-none-any.whl (22 kB)\r\nCollecting urllib3<1.27,>=1.21.1\r\n  Downloading urllib3-1.26.2-py2.py3-none-any.whl (136 kB)\r\n     |████████████████████████████████| 136 kB 2.2 MB/s\r\nCollecting werkzeug>=0.11.15\r\n  Downloading Werkzeug-1.0.1-py2.py3-none-any.whl (298 kB)\r\n     |████████████████████████████████| 298 kB 2.2 MB/s\r\nCollecting wrapt~=1.12.1\r\n  Downloading wrapt-1.12.1.tar.gz (27 kB)\r\nBuilding wheels for collected packages: termcolor, wrapt\r\n  Building wheel for termcolor (setup.py) ... done\r\n  Created wheel for termcolor: filename=termcolor-1.1.0-py3-none-any.whl size=4829 sha256=841391132c29825394e6b0ab2a1e79ffb1f6a1867cd2a214dc65cc3c4aa5b688\r\n  Stored in directory: c:\\users\\reno\\appdata\\local\\pip\\cache\\wheels\\a0\\16\\9c\\5473df82468f958445479c59e784896fa24f4a5fc024b0f501\r\n  Building wheel for wrapt (setup.py) ... done\r\n  Created wheel for wrapt: filename=wrapt-1.12.1-cp38-cp38-win_amd64.whl size=33672 sha256=7efbaa96078fc7ecd811c170d66cc642ab8fd8f88a41af40ba118c5b7c16765f\r\n  Stored in directory: c:\\users\\reno\\appdata\\local\\pip\\cache\\wheels\\5f\\fd\\9e\\b6cf5890494cb8ef0b5eaff72e5d55a70fb56316007d6dfe73\r\nSuccessfully built termcolor wrapt\r\nInstalling collected packages: urllib3, pyasn1, idna, chardet, six, rsa, requests, pyasn1-modules, oauthlib, cachetools, requests-oauthlib, google-auth, werkzeug, tensorboard-plugin-wit, protobuf, numpy, markdown, grpcio, google-auth-oauthlib, absl-py, wrapt, typing-extensions, termcolor, tensorflow-estimator, tensorboard, opt-einsum, keras-preprocessing, h5py, google-pasta, gast, flatbuffers, astunparse, tensorflow\r\nSuccessfully installed absl-py-0.11.0 astunparse-1.6.3 cachetools-4.2.0 chardet-4.0.0 flatbuffers-1.12 gast-0.3.3 google-auth-1.24.0 google-auth-oauthlib-0.4.2 google-pasta-0.2.0 grpcio-1.32.0 h5py-2.10.0 idna-2.10 keras-preprocessing-1.1.2 markdown-3.3.3 numpy-1.19.5 oauthlib-3.1.0 opt-einsum-3.3.0 protobuf-3.14.0 pyasn1-0.4.8 pyasn1-modules-0.2.8 requests-2.25.1 requests-oauthlib-1.3.0 rsa-4.6 six-1.15.0 tensorboard-2.4.0 tensorboard-plugin-wit-1.7.0 tensorflow-2.4.0 tensorflow-estimator-2.4.0 termcolor-1.1.0 typing-extensions-3.7.4.3 urllib3-1.26.2 werkzeug-1.0.1 wrapt-1.12.1\r\n\r\n(tensorflow) C:\\Users\\Reno>cd C:\\Users\\Reno\\Documents\\TensorFlow\\workspace\\training\r\n\r\n(tensorflow) C:\\Users\\Reno\\Documents\\TensorFlow\\workspace\\training>python convert_to_tflite_v2.py\r\n\r\n2021-01-08 11:30:11.595435: I tensorflow/stream_executor/platform/default/dso_loader.cc:49] Successfully opened dynamic library cudart64_110.dll\r\n2021-01-08 11:30:19.711062: I tensorflow/compiler/jit/xla_cpu_device.cc:41] Not creating XLA devices, tf_xla_enable_xla_devices not set\r\n2021-01-08 11:30:19.715933: I tensorflow/stream_executor/platform/default/dso_loader.cc:49] Successfully opened dynamic library nvcuda.dll\r\n2021-01-08 11:30:20.065510: I tensorflow/core/common_runtime/gpu/gpu_device.cc:1720] Found device 0 with properties:\r\npciBusID: 0000:01:00.0 name: Quadro P2000 computeCapability: 6.1\r\ncoreClock: 1.607GHz coreCount: 6 deviceMemorySize: 4.00GiB deviceMemoryBandwidth: 89.53GiB/s\r\n2021-01-08 11:30:20.072148: I tensorflow/stream_executor/platform/default/dso_loader.cc:49] Successfully opened dynamic library cudart64_110.dll\r\n2021-01-08 11:30:20.083133: I tensorflow/stream_executor/platform/default/dso_loader.cc:49] Successfully opened dynamic library cublas64_11.dll\r\n2021-01-08 11:30:20.088475: I tensorflow/stream_executor/platform/default/dso_loader.cc:49] Successfully opened dynamic library cublasLt64_11.dll\r\n2021-01-08 11:30:20.099554: I tensorflow/stream_executor/platform/default/dso_loader.cc:49] Successfully opened dynamic library cufft64_10.dll\r\n2021-01-08 11:30:20.105734: I tensorflow/stream_executor/platform/default/dso_loader.cc:49] Successfully opened dynamic library curand64_10.dll\r\n2021-01-08 11:30:20.118062: I tensorflow/stream_executor/platform/default/dso_loader.cc:49] Successfully opened dynamic library cusolver64_10.dll\r\n2021-01-08 11:30:20.124535: I tensorflow/stream_executor/platform/default/dso_loader.cc:49] Successfully opened dynamic library cusparse64_11.dll\r\n2021-01-08 11:30:20.130482: I tensorflow/stream_executor/platform/default/dso_loader.cc:49] Successfully opened dynamic library cudnn64_8.dll\r\n2021-01-08 11:30:20.133532: I tensorflow/core/common_runtime/gpu/gpu_device.cc:1862] Adding visible gpu devices: 0\r\n2021-01-08 11:30:20.136101: I tensorflow/core/platform/cpu_feature_guard.cc:142] This TensorFlow binary is optimized with oneAPI Deep Neural Network Library (oneDNN) to use the following CPU instructions in performance-critical operations:  AVX2\r\nTo enable them in other operations, rebuild TensorFlow with the appropriate compiler flags.\r\n2021-01-08 11:30:20.144289: I tensorflow/core/common_runtime/gpu/gpu_device.cc:1720] Found device 0 with properties:\r\npciBusID: 0000:01:00.0 name: Quadro P2000 computeCapability: 6.1\r\ncoreClock: 1.607GHz coreCount: 6 deviceMemorySize: 4.00GiB deviceMemoryBandwidth: 89.53GiB/s\r\n2021-01-08 11:30:20.152136: I tensorflow/stream_executor/platform/default/dso_loader.cc:49] Successfully opened dynamic library cudart64_110.dll\r\n2021-01-08 11:30:20.155789: I tensorflow/stream_executor/platform/default/dso_loader.cc:49] Successfully opened dynamic library cublas64_11.dll\r\n2021-01-08 11:30:20.159025: I tensorflow/stream_executor/platform/default/dso_loader.cc:49] Successfully opened dynamic library cublasLt64_11.dll\r\n2021-01-08 11:30:20.162087: I tensorflow/stream_executor/platform/default/dso_loader.cc:49] Successfully opened dynamic library cufft64_10.dll\r\n2021-01-08 11:30:20.165806: I tensorflow/stream_executor/platform/default/dso_loader.cc:49] Successfully opened dynamic library curand64_10.dll\r\n2021-01-08 11:30:20.171067: I tensorflow/stream_executor/platform/default/dso_loader.cc:49] Successfully opened dynamic library cusolver64_10.dll\r\n2021-01-08 11:30:20.174766: I tensorflow/stream_executor/platform/default/dso_loader.cc:49] Successfully opened dynamic library cusparse64_11.dll\r\n2021-01-08 11:30:20.180898: I tensorflow/stream_executor/platform/default/dso_loader.cc:49] Successfully opened dynamic library cudnn64_8.dll\r\n2021-01-08 11:30:20.185452: I tensorflow/core/common_runtime/gpu/gpu_device.cc:1862] Adding visible gpu devices: 0\r\n2021-01-08 11:30:20.767230: I tensorflow/core/common_runtime/gpu/gpu_device.cc:1261] Device interconnect StreamExecutor with strength 1 edge matrix:\r\n2021-01-08 11:30:20.771172: I tensorflow/core/common_runtime/gpu/gpu_device.cc:1267]      0\r\n2021-01-08 11:30:20.773087: I tensorflow/core/common_runtime/gpu/gpu_device.cc:1280] 0:   N\r\n2021-01-08 11:30:20.775197: I tensorflow/core/common_runtime/gpu/gpu_device.cc:1406] Created TensorFlow device (/job:localhost/replica:0/task:0/device:GPU:0 with 2982 MB memory) -> physical GPU (device: 0, name: Quadro P2000, pci bus id: 0000:01:00.0, compute capability: 6.1)\r\n2021-01-08 11:30:20.783136: I tensorflow/compiler/jit/xla_gpu_device.cc:99] Not creating XLA devices, tf_xla_enable_xla_devices not set\r\n2021-01-08 11:31:15.040028: W tensorflow/compiler/mlir/lite/python/tf_tfl_flatbuffer_helpers.cc:316] Ignored output_format.\r\n2021-01-08 11:31:15.046343: W tensorflow/compiler/mlir/lite/python/tf_tfl_flatbuffer_helpers.cc:319] Ignored drop_control_dependency.\r\n2021-01-08 11:31:15.052724: W tensorflow/compiler/mlir/lite/python/tf_tfl_flatbuffer_helpers.cc:325] Ignored change_concat_input_ranges.\r\n2021-01-08 11:31:15.059159: I tensorflow/cc/saved_model/reader.cc:32] Reading SavedModel from: C:/Users/Reno/Documents/TensorFlow/workspace/training_walnoot/exported-models/walnoot_model_lite/saved_model/\r\n2021-01-08 11:31:15.152959: I tensorflow/cc/saved_model/reader.cc:55] Reading meta graph with tags { serve }\r\n2021-01-08 11:31:15.155845: I tensorflow/cc/saved_model/reader.cc:93] Reading SavedModel debug info (if present) from: C:/Users/Reno/Documents/TensorFlow/workspace/training_walnoot/exported-models/walnoot_model_lite/saved_model/\r\n2021-01-08 11:31:15.163162: I tensorflow/core/common_runtime/gpu/gpu_device.cc:1261] Device interconnect StreamExecutor with strength 1 edge matrix:\r\n2021-01-08 11:31:15.167694: I tensorflow/core/common_runtime/gpu/gpu_device.cc:1267]\r\n2021-01-08 11:31:15.170225: I tensorflow/compiler/jit/xla_gpu_device.cc:99] Not creating XLA devices, tf_xla_enable_xla_devices not set\r\n2021-01-08 11:31:15.517776: I tensorflow/compiler/mlir/mlir_graph_optimization_pass.cc:196] None of the MLIR optimization passes are enabled (registered 0 passes)\r\n2021-01-08 11:31:15.565923: I tensorflow/cc/saved_model/loader.cc:206] Restoring SavedModel bundle.\r\n2021-01-08 11:31:16.326616: I tensorflow/cc/saved_model/loader.cc:190] Running initialization op on SavedModel bundle at path: C:/Users/Reno/Documents/TensorFlow/workspace/training_walnoot/exported-models/walnoot_model_lite/saved_model/\r\n2021-01-08 11:31:16.703255: I tensorflow/cc/saved_model/loader.cc:277] SavedModel load for tags { serve }; Status: success: OK. Took 1644097 microseconds.\r\n2021-01-08 11:31:20.471768: I tensorflow/compiler/mlir/tensorflow/utils/dump_mlir_util.cc:194] disabling MLIR crash reproducer, set env var `MLIR_CRASH_REPRODUCER_DIRECTORY` to enable.\r\n2021-01-08 11:31:21.438534: I tensorflow/core/common_runtime/gpu/gpu_device.cc:1720] Found device 0 with properties:\r\npciBusID: 0000:01:00.0 name: Quadro P2000 computeCapability: 6.1\r\ncoreClock: 1.607GHz coreCount: 6 deviceMemorySize: 4.00GiB deviceMemoryBandwidth: 89.53GiB/s\r\n2021-01-08 11:31:21.445277: I tensorflow/stream_executor/platform/default/dso_loader.cc:49] Successfully opened dynamic library cudart64_110.dll\r\n2021-01-08 11:31:21.452203: I tensorflow/stream_executor/platform/default/dso_loader.cc:49] Successfully opened dynamic library cublas64_11.dll\r\n2021-01-08 11:31:21.456431: I tensorflow/stream_executor/platform/default/dso_loader.cc:49] Successfully opened dynamic library cublasLt64_11.dll\r\n2021-01-08 11:31:21.461100: I tensorflow/stream_executor/platform/default/dso_loader.cc:49] Successfully opened dynamic library cufft64_10.dll\r\n2021-01-08 11:31:21.467734: I tensorflow/stream_executor/platform/default/dso_loader.cc:49] Successfully opened dynamic library curand64_10.dll\r\n2021-01-08 11:31:21.473807: I tensorflow/stream_executor/platform/default/dso_loader.cc:49] Successfully opened dynamic library cusolver64_10.dll\r\n2021-01-08 11:31:21.479188: I tensorflow/stream_executor/platform/default/dso_loader.cc:49] Successfully opened dynamic library cusparse64_11.dll\r\n2021-01-08 11:31:21.485787: I tensorflow/stream_executor/platform/default/dso_loader.cc:49] Successfully opened dynamic library cudnn64_8.dll\r\n2021-01-08 11:31:21.491625: I tensorflow/core/common_runtime/gpu/gpu_device.cc:1862] Adding visible gpu devices: 0\r\n2021-01-08 11:31:21.495347: I tensorflow/core/common_runtime/gpu/gpu_device.cc:1261] Device interconnect StreamExecutor with strength 1 edge matrix:\r\n2021-01-08 11:31:21.499727: I tensorflow/core/common_runtime/gpu/gpu_device.cc:1267]      0\r\n2021-01-08 11:31:21.502749: I tensorflow/core/common_runtime/gpu/gpu_device.cc:1280] 0:   N\r\n2021-01-08 11:31:21.505539: I tensorflow/core/common_runtime/gpu/gpu_device.cc:1406] Created TensorFlow device (/job:localhost/replica:0/task:0/device:GPU:0 with 2982 MB memory) -> physical GPU (device: 0, name: Quadro P2000, pci bus id: 0000:01:00.0, compute capability: 6.1)\r\n2021-01-08 11:31:21.513866: I tensorflow/compiler/jit/xla_gpu_device.cc:99] Not creating XLA devices, tf_xla_enable_xla_devices not set\r\nloc(callsite(callsite(\"Postprocessor/BatchMultiClassNonMaxSuppression/MultiClassNonMaxSuppression/SortByField_1/Size@__inference___call___23519\" at \"StatefulPartitionedCall@__inference_signature_wrapper_25508\") at \"StatefulPartitionedCall\")): error: 'tf.Size' op is neither a custom op nor a flex op\r\nerror: failed while converting: 'main': Ops that can be supported by the flex runtime (enabled via setting the -emit-select-tf-ops flag):\r\n        tf.Size {device = \"\"}\r\nTraceback (most recent call last):\r\n  File \"C:\\Users\\Reno\\.conda\\envs\\tensorflow\\lib\\site-packages\\tensorflow\\lite\\python\\convert.py\", line 210, in toco_convert_protos\r\n    model_str = wrap_toco.wrapped_toco_convert(model_flags_str,\r\n  File \"C:\\Users\\Reno\\.conda\\envs\\tensorflow\\lib\\site-packages\\tensorflow\\lite\\python\\wrap_toco.py\", line 32, in wrapped_toco_convert\r\n    return _pywrap_toco_api.TocoConvert(\r\nException: <unknown>:0: error: loc(callsite(callsite(\"Postprocessor/BatchMultiClassNonMaxSuppression/MultiClassNonMaxSuppression/SortByField_1/Size@__inference___call___23519\" at \"StatefulPartitionedCall@__inference_signature_wrapper_25508\") at \"StatefulPartitionedCall\")): 'tf.Size' op is neither a custom op nor a flex op\r\n<unknown>:0: note: loc(\"StatefulPartitionedCall\"): called from\r\n<unknown>:0: error: failed while converting: 'main': Ops that can be supported by the flex runtime (enabled via setting the -emit-select-tf-ops flag):\r\n        tf.Size {device = \"\"}\r\n \r\n \r\nDuring handling of the above exception, another exception occurred:\r\n \r\nTraceback (most recent call last):\r\n  File \"convert_to_tflite_v2.py\", line 7, in <module>\r\n    tflite_model = converter.convert()\r\n  File \"C:\\Users\\Reno\\.conda\\envs\\tensorflow\\lib\\site-packages\\tensorflow\\lite\\python\\lite.py\", line 739, in convert\r\n    result = _convert_saved_model(**converter_kwargs)\r\n  File \"C:\\Users\\Reno\\.conda\\envs\\tensorflow\\lib\\site-packages\\tensorflow\\lite\\python\\convert.py\", line 632, in convert_saved_model\r\n    data = toco_convert_protos(\r\n  File \"C:\\Users\\Reno\\.conda\\envs\\tensorflow\\lib\\site-packages\\tensorflow\\lite\\python\\convert.py\", line 216, in toco_convert_protos\r\n    raise ConverterError(str(e))\r\ntensorflow.lite.python.convert.ConverterError: <unknown>:0: error: loc(callsite(callsite(\"Postprocessor/BatchMultiClassNonMaxSuppression/MultiClassNonMaxSuppression/SortByField_1/Size@__inference___call___23519\" at \"StatefulPartitionedCall@__inference_signature_wrapper_25508\") at \"StatefulPartitionedCall\")): 'tf.Size' op is neither a custom op nor a flex op\r\n<unknown>:0: note: loc(\"StatefulPartitionedCall\"): called from\r\n<unknown>:0: error: failed while converting: 'main': Ops that can be supported by the flex runtime (enabled via setting the -emit-select-tf-ops flag):\r\n        tf.Size {device = \"\"}\r\n \r\n \r\n(tensorflow) C:\\Users\\Reno\\Documents\\TensorFlow\\workspace\\training>\r\n```\r\n\r\nWhy is this error appearing just now, what does it mean, and how can I convert a model to TFlite without any of these nasty errors and subsequently run it on a Raspberry Pi without any hassle.\r\n\r\nThanks in advance.",
      "reactions": {
        "url": "https://api.github.com/repos/tensorflow/tensorflow/issues/46285/reactions",
        "total_count": 0,
        "+1": 0,
        "-1": 0,
        "laugh": 0,
        "hooray": 0,
        "confused": 0,
        "heart": 0,
        "rocket": 0,
        "eyes": 0
      },
      "timeline_url": "https://api.github.com/repos/tensorflow/tensorflow/issues/46285/timeline",
      "performed_via_github_app": null,
      "score": 1.0
    },
    {
      "url": "https://api.github.com/repos/tensorflow/tensorflow/issues/46272",
      "repository_url": "https://api.github.com/repos/tensorflow/tensorflow",
      "labels_url": "https://api.github.com/repos/tensorflow/tensorflow/issues/46272/labels{/name}",
      "comments_url": "https://api.github.com/repos/tensorflow/tensorflow/issues/46272/comments",
      "events_url": "https://api.github.com/repos/tensorflow/tensorflow/issues/46272/events",
      "html_url": "https://github.com/tensorflow/tensorflow/issues/46272",
      "id": 781821259,
      "node_id": "MDU6SXNzdWU3ODE4MjEyNTk=",
      "number": 46272,
      "title": "use of interpreter-->SetNumThreads. Do we need to invoke setNumThreads always to improve performance",
      "user": {
        "login": "pranathibl",
        "id": 47776253,
        "node_id": "MDQ6VXNlcjQ3Nzc2MjUz",
        "avatar_url": "https://avatars.githubusercontent.com/u/47776253?v=4",
        "gravatar_id": "",
        "url": "https://api.github.com/users/pranathibl",
        "html_url": "https://github.com/pranathibl",
        "followers_url": "https://api.github.com/users/pranathibl/followers",
        "following_url": "https://api.github.com/users/pranathibl/following{/other_user}",
        "gists_url": "https://api.github.com/users/pranathibl/gists{/gist_id}",
        "starred_url": "https://api.github.com/users/pranathibl/starred{/owner}{/repo}",
        "subscriptions_url": "https://api.github.com/users/pranathibl/subscriptions",
        "organizations_url": "https://api.github.com/users/pranathibl/orgs",
        "repos_url": "https://api.github.com/users/pranathibl/repos",
        "events_url": "https://api.github.com/users/pranathibl/events{/privacy}",
        "received_events_url": "https://api.github.com/users/pranathibl/received_events",
        "type": "User",
        "site_admin": false
      },
      "labels": [
        {
          "id": 404586594,
          "node_id": "MDU6TGFiZWw0MDQ1ODY1OTQ=",
          "url": "https://api.github.com/repos/tensorflow/tensorflow/labels/stat:awaiting%20tensorflower",
          "name": "stat:awaiting tensorflower",
          "color": "f4b400",
          "default": false,
          "description": "Status  - Awaiting response from tensorflower"
        },
        {
          "id": 473184161,
          "node_id": "MDU6TGFiZWw0NzMxODQxNjE=",
          "url": "https://api.github.com/repos/tensorflow/tensorflow/labels/type:support",
          "name": "type:support",
          "color": "159b2e",
          "default": false,
          "description": "Support issues"
        },
        {
          "id": 750616506,
          "node_id": "MDU6TGFiZWw3NTA2MTY1MDY=",
          "url": "https://api.github.com/repos/tensorflow/tensorflow/labels/comp:lite",
          "name": "comp:lite",
          "color": "0052cc",
          "default": false,
          "description": "TF Lite related issues"
        }
      ],
      "state": "closed",
      "locked": false,
      "assignee": {
        "login": "talumbau",
        "id": 1891418,
        "node_id": "MDQ6VXNlcjE4OTE0MTg=",
        "avatar_url": "https://avatars.githubusercontent.com/u/1891418?v=4",
        "gravatar_id": "",
        "url": "https://api.github.com/users/talumbau",
        "html_url": "https://github.com/talumbau",
        "followers_url": "https://api.github.com/users/talumbau/followers",
        "following_url": "https://api.github.com/users/talumbau/following{/other_user}",
        "gists_url": "https://api.github.com/users/talumbau/gists{/gist_id}",
        "starred_url": "https://api.github.com/users/talumbau/starred{/owner}{/repo}",
        "subscriptions_url": "https://api.github.com/users/talumbau/subscriptions",
        "organizations_url": "https://api.github.com/users/talumbau/orgs",
        "repos_url": "https://api.github.com/users/talumbau/repos",
        "events_url": "https://api.github.com/users/talumbau/events{/privacy}",
        "received_events_url": "https://api.github.com/users/talumbau/received_events",
        "type": "User",
        "site_admin": false
      },
      "assignees": [
        {
          "login": "talumbau",
          "id": 1891418,
          "node_id": "MDQ6VXNlcjE4OTE0MTg=",
          "avatar_url": "https://avatars.githubusercontent.com/u/1891418?v=4",
          "gravatar_id": "",
          "url": "https://api.github.com/users/talumbau",
          "html_url": "https://github.com/talumbau",
          "followers_url": "https://api.github.com/users/talumbau/followers",
          "following_url": "https://api.github.com/users/talumbau/following{/other_user}",
          "gists_url": "https://api.github.com/users/talumbau/gists{/gist_id}",
          "starred_url": "https://api.github.com/users/talumbau/starred{/owner}{/repo}",
          "subscriptions_url": "https://api.github.com/users/talumbau/subscriptions",
          "organizations_url": "https://api.github.com/users/talumbau/orgs",
          "repos_url": "https://api.github.com/users/talumbau/repos",
          "events_url": "https://api.github.com/users/talumbau/events{/privacy}",
          "received_events_url": "https://api.github.com/users/talumbau/received_events",
          "type": "User",
          "site_admin": false
        },
        {
          "login": "ymodak",
          "id": 42785357,
          "node_id": "MDQ6VXNlcjQyNzg1MzU3",
          "avatar_url": "https://avatars.githubusercontent.com/u/42785357?v=4",
          "gravatar_id": "",
          "url": "https://api.github.com/users/ymodak",
          "html_url": "https://github.com/ymodak",
          "followers_url": "https://api.github.com/users/ymodak/followers",
          "following_url": "https://api.github.com/users/ymodak/following{/other_user}",
          "gists_url": "https://api.github.com/users/ymodak/gists{/gist_id}",
          "starred_url": "https://api.github.com/users/ymodak/starred{/owner}{/repo}",
          "subscriptions_url": "https://api.github.com/users/ymodak/subscriptions",
          "organizations_url": "https://api.github.com/users/ymodak/orgs",
          "repos_url": "https://api.github.com/users/ymodak/repos",
          "events_url": "https://api.github.com/users/ymodak/events{/privacy}",
          "received_events_url": "https://api.github.com/users/ymodak/received_events",
          "type": "User",
          "site_admin": false
        }
      ],
      "milestone": null,
      "comments": 2,
      "created_at": "2021-01-08T03:50:38Z",
      "updated_at": "2021-02-15T08:04:16Z",
      "closed_at": "2021-02-15T08:04:14Z",
      "author_association": "NONE",
      "active_lock_reason": null,
      "body": "In the label_image.cc example from tfLite, we are passing setNumThreads manually under the code.\r\nDoes number of threads automatically picked by tfLite (or) Is it required by user to always force SetNumThreads ?\r\n",
      "reactions": {
        "url": "https://api.github.com/repos/tensorflow/tensorflow/issues/46272/reactions",
        "total_count": 0,
        "+1": 0,
        "-1": 0,
        "laugh": 0,
        "hooray": 0,
        "confused": 0,
        "heart": 0,
        "rocket": 0,
        "eyes": 0
      },
      "timeline_url": "https://api.github.com/repos/tensorflow/tensorflow/issues/46272/timeline",
      "performed_via_github_app": null,
      "score": 1.0
    },
    {
      "url": "https://api.github.com/repos/tensorflow/tensorflow/issues/46223",
      "repository_url": "https://api.github.com/repos/tensorflow/tensorflow",
      "labels_url": "https://api.github.com/repos/tensorflow/tensorflow/issues/46223/labels{/name}",
      "comments_url": "https://api.github.com/repos/tensorflow/tensorflow/issues/46223/comments",
      "events_url": "https://api.github.com/repos/tensorflow/tensorflow/issues/46223/events",
      "html_url": "https://github.com/tensorflow/tensorflow/issues/46223",
      "id": 780680274,
      "node_id": "MDU6SXNzdWU3ODA2ODAyNzQ=",
      "number": 46223,
      "title": "Running multiple hexagon delegates sequentially. ",
      "user": {
        "login": "yakovdan",
        "id": 2789897,
        "node_id": "MDQ6VXNlcjI3ODk4OTc=",
        "avatar_url": "https://avatars.githubusercontent.com/u/2789897?v=4",
        "gravatar_id": "",
        "url": "https://api.github.com/users/yakovdan",
        "html_url": "https://github.com/yakovdan",
        "followers_url": "https://api.github.com/users/yakovdan/followers",
        "following_url": "https://api.github.com/users/yakovdan/following{/other_user}",
        "gists_url": "https://api.github.com/users/yakovdan/gists{/gist_id}",
        "starred_url": "https://api.github.com/users/yakovdan/starred{/owner}{/repo}",
        "subscriptions_url": "https://api.github.com/users/yakovdan/subscriptions",
        "organizations_url": "https://api.github.com/users/yakovdan/orgs",
        "repos_url": "https://api.github.com/users/yakovdan/repos",
        "events_url": "https://api.github.com/users/yakovdan/events{/privacy}",
        "received_events_url": "https://api.github.com/users/yakovdan/received_events",
        "type": "User",
        "site_admin": false
      },
      "labels": [
        {
          "id": 473184161,
          "node_id": "MDU6TGFiZWw0NzMxODQxNjE=",
          "url": "https://api.github.com/repos/tensorflow/tensorflow/labels/type:support",
          "name": "type:support",
          "color": "159b2e",
          "default": false,
          "description": "Support issues"
        },
        {
          "id": 750616506,
          "node_id": "MDU6TGFiZWw3NTA2MTY1MDY=",
          "url": "https://api.github.com/repos/tensorflow/tensorflow/labels/comp:lite",
          "name": "comp:lite",
          "color": "0052cc",
          "default": false,
          "description": "TF Lite related issues"
        },
        {
          "id": 1903591931,
          "node_id": "MDU6TGFiZWwxOTAzNTkxOTMx",
          "url": "https://api.github.com/repos/tensorflow/tensorflow/labels/TF%202.2",
          "name": "TF 2.2",
          "color": "0052cc",
          "default": false,
          "description": "Issues related to TF 2.2"
        }
      ],
      "state": "closed",
      "locked": false,
      "assignee": {
        "login": "ymodak",
        "id": 42785357,
        "node_id": "MDQ6VXNlcjQyNzg1MzU3",
        "avatar_url": "https://avatars.githubusercontent.com/u/42785357?v=4",
        "gravatar_id": "",
        "url": "https://api.github.com/users/ymodak",
        "html_url": "https://github.com/ymodak",
        "followers_url": "https://api.github.com/users/ymodak/followers",
        "following_url": "https://api.github.com/users/ymodak/following{/other_user}",
        "gists_url": "https://api.github.com/users/ymodak/gists{/gist_id}",
        "starred_url": "https://api.github.com/users/ymodak/starred{/owner}{/repo}",
        "subscriptions_url": "https://api.github.com/users/ymodak/subscriptions",
        "organizations_url": "https://api.github.com/users/ymodak/orgs",
        "repos_url": "https://api.github.com/users/ymodak/repos",
        "events_url": "https://api.github.com/users/ymodak/events{/privacy}",
        "received_events_url": "https://api.github.com/users/ymodak/received_events",
        "type": "User",
        "site_admin": false
      },
      "assignees": [
        {
          "login": "ymodak",
          "id": 42785357,
          "node_id": "MDQ6VXNlcjQyNzg1MzU3",
          "avatar_url": "https://avatars.githubusercontent.com/u/42785357?v=4",
          "gravatar_id": "",
          "url": "https://api.github.com/users/ymodak",
          "html_url": "https://github.com/ymodak",
          "followers_url": "https://api.github.com/users/ymodak/followers",
          "following_url": "https://api.github.com/users/ymodak/following{/other_user}",
          "gists_url": "https://api.github.com/users/ymodak/gists{/gist_id}",
          "starred_url": "https://api.github.com/users/ymodak/starred{/owner}{/repo}",
          "subscriptions_url": "https://api.github.com/users/ymodak/subscriptions",
          "organizations_url": "https://api.github.com/users/ymodak/orgs",
          "repos_url": "https://api.github.com/users/ymodak/repos",
          "events_url": "https://api.github.com/users/ymodak/events{/privacy}",
          "received_events_url": "https://api.github.com/users/ymodak/received_events",
          "type": "User",
          "site_admin": false
        },
        {
          "login": "karimnosseir",
          "id": 44206880,
          "node_id": "MDQ6VXNlcjQ0MjA2ODgw",
          "avatar_url": "https://avatars.githubusercontent.com/u/44206880?v=4",
          "gravatar_id": "",
          "url": "https://api.github.com/users/karimnosseir",
          "html_url": "https://github.com/karimnosseir",
          "followers_url": "https://api.github.com/users/karimnosseir/followers",
          "following_url": "https://api.github.com/users/karimnosseir/following{/other_user}",
          "gists_url": "https://api.github.com/users/karimnosseir/gists{/gist_id}",
          "starred_url": "https://api.github.com/users/karimnosseir/starred{/owner}{/repo}",
          "subscriptions_url": "https://api.github.com/users/karimnosseir/subscriptions",
          "organizations_url": "https://api.github.com/users/karimnosseir/orgs",
          "repos_url": "https://api.github.com/users/karimnosseir/repos",
          "events_url": "https://api.github.com/users/karimnosseir/events{/privacy}",
          "received_events_url": "https://api.github.com/users/karimnosseir/received_events",
          "type": "User",
          "site_admin": false
        }
      ],
      "milestone": null,
      "comments": 5,
      "created_at": "2021-01-06T16:27:12Z",
      "updated_at": "2021-01-09T00:58:16Z",
      "closed_at": "2021-01-09T00:15:58Z",
      "author_association": "NONE",
      "active_lock_reason": null,
      "body": "**System information**\r\n- Have I written custom code (as opposed to using a stock example script provided in TensorFlow): yes\r\n- OS Platform and Distribution (e.g., Linux Ubuntu 16.04): Windows 10\r\n- Mobile device (e.g. iPhone 8, Pixel 2, Samsung Galaxy) if the issue happens on mobile device: Snapdragon 855 running Android 9\r\n- TensorFlow installed from (source or binary): source\r\n- TensorFlow version (use command below): 2.2.0\r\n- Python version: 3.8\r\n- Bazel version (if compiling from source): 2.0.0\r\n- GCC/Compiler version (if compiling from source): 7.5.0\r\n- CUDA/cuDNN version: N/A\r\n- GPU model and memory: N/A\r\n\r\n**Describe the current behavior**\r\n\r\nRight now, I have two instances of TfLite interpreter created using the same tflite model. Some of the network is delegated to DSP using hexagon delegate. Both interpreters are initialized one after other. Then, Invoke() is called many times, on either one or the other interpreter. This works fine. \r\n\r\n**Describe the expected behavior**\r\n\r\nWhat happens if I create two instances of tfliteInterpreter from different models, both using hexagon delegate? Will this work as expected? \r\n\r\n",
      "reactions": {
        "url": "https://api.github.com/repos/tensorflow/tensorflow/issues/46223/reactions",
        "total_count": 0,
        "+1": 0,
        "-1": 0,
        "laugh": 0,
        "hooray": 0,
        "confused": 0,
        "heart": 0,
        "rocket": 0,
        "eyes": 0
      },
      "timeline_url": "https://api.github.com/repos/tensorflow/tensorflow/issues/46223/timeline",
      "performed_via_github_app": null,
      "score": 1.0
    },
    {
      "url": "https://api.github.com/repos/tensorflow/tensorflow/issues/46218",
      "repository_url": "https://api.github.com/repos/tensorflow/tensorflow",
      "labels_url": "https://api.github.com/repos/tensorflow/tensorflow/issues/46218/labels{/name}",
      "comments_url": "https://api.github.com/repos/tensorflow/tensorflow/issues/46218/comments",
      "events_url": "https://api.github.com/repos/tensorflow/tensorflow/issues/46218/events",
      "html_url": "https://github.com/tensorflow/tensorflow/issues/46218",
      "id": 780580129,
      "node_id": "MDU6SXNzdWU3ODA1ODAxMjk=",
      "number": 46218,
      "title": "micro_speech: Run on macOS make error",
      "user": {
        "login": "henriwoodcock",
        "id": 45004378,
        "node_id": "MDQ6VXNlcjQ1MDA0Mzc4",
        "avatar_url": "https://avatars.githubusercontent.com/u/45004378?v=4",
        "gravatar_id": "",
        "url": "https://api.github.com/users/henriwoodcock",
        "html_url": "https://github.com/henriwoodcock",
        "followers_url": "https://api.github.com/users/henriwoodcock/followers",
        "following_url": "https://api.github.com/users/henriwoodcock/following{/other_user}",
        "gists_url": "https://api.github.com/users/henriwoodcock/gists{/gist_id}",
        "starred_url": "https://api.github.com/users/henriwoodcock/starred{/owner}{/repo}",
        "subscriptions_url": "https://api.github.com/users/henriwoodcock/subscriptions",
        "organizations_url": "https://api.github.com/users/henriwoodcock/orgs",
        "repos_url": "https://api.github.com/users/henriwoodcock/repos",
        "events_url": "https://api.github.com/users/henriwoodcock/events{/privacy}",
        "received_events_url": "https://api.github.com/users/henriwoodcock/received_events",
        "type": "User",
        "site_admin": false
      },
      "labels": [
        {
          "id": 473184161,
          "node_id": "MDU6TGFiZWw0NzMxODQxNjE=",
          "url": "https://api.github.com/repos/tensorflow/tensorflow/labels/type:support",
          "name": "type:support",
          "color": "159b2e",
          "default": false,
          "description": "Support issues"
        },
        {
          "id": 750616506,
          "node_id": "MDU6TGFiZWw3NTA2MTY1MDY=",
          "url": "https://api.github.com/repos/tensorflow/tensorflow/labels/comp:lite",
          "name": "comp:lite",
          "color": "0052cc",
          "default": false,
          "description": "TF Lite related issues"
        },
        {
          "id": 1589976566,
          "node_id": "MDU6TGFiZWwxNTg5OTc2NTY2",
          "url": "https://api.github.com/repos/tensorflow/tensorflow/labels/comp:micro",
          "name": "comp:micro",
          "color": "3e2eea",
          "default": false,
          "description": "Related to TensorFlow Lite Microcontrollers"
        }
      ],
      "state": "closed",
      "locked": false,
      "assignee": {
        "login": "amahendrakar",
        "id": 57165142,
        "node_id": "MDQ6VXNlcjU3MTY1MTQy",
        "avatar_url": "https://avatars.githubusercontent.com/u/57165142?v=4",
        "gravatar_id": "",
        "url": "https://api.github.com/users/amahendrakar",
        "html_url": "https://github.com/amahendrakar",
        "followers_url": "https://api.github.com/users/amahendrakar/followers",
        "following_url": "https://api.github.com/users/amahendrakar/following{/other_user}",
        "gists_url": "https://api.github.com/users/amahendrakar/gists{/gist_id}",
        "starred_url": "https://api.github.com/users/amahendrakar/starred{/owner}{/repo}",
        "subscriptions_url": "https://api.github.com/users/amahendrakar/subscriptions",
        "organizations_url": "https://api.github.com/users/amahendrakar/orgs",
        "repos_url": "https://api.github.com/users/amahendrakar/repos",
        "events_url": "https://api.github.com/users/amahendrakar/events{/privacy}",
        "received_events_url": "https://api.github.com/users/amahendrakar/received_events",
        "type": "User",
        "site_admin": false
      },
      "assignees": [
        {
          "login": "amahendrakar",
          "id": 57165142,
          "node_id": "MDQ6VXNlcjU3MTY1MTQy",
          "avatar_url": "https://avatars.githubusercontent.com/u/57165142?v=4",
          "gravatar_id": "",
          "url": "https://api.github.com/users/amahendrakar",
          "html_url": "https://github.com/amahendrakar",
          "followers_url": "https://api.github.com/users/amahendrakar/followers",
          "following_url": "https://api.github.com/users/amahendrakar/following{/other_user}",
          "gists_url": "https://api.github.com/users/amahendrakar/gists{/gist_id}",
          "starred_url": "https://api.github.com/users/amahendrakar/starred{/owner}{/repo}",
          "subscriptions_url": "https://api.github.com/users/amahendrakar/subscriptions",
          "organizations_url": "https://api.github.com/users/amahendrakar/orgs",
          "repos_url": "https://api.github.com/users/amahendrakar/repos",
          "events_url": "https://api.github.com/users/amahendrakar/events{/privacy}",
          "received_events_url": "https://api.github.com/users/amahendrakar/received_events",
          "type": "User",
          "site_admin": false
        }
      ],
      "milestone": null,
      "comments": 1,
      "created_at": "2021-01-06T14:10:45Z",
      "updated_at": "2021-01-08T15:24:18Z",
      "closed_at": "2021-01-07T10:33:55Z",
      "author_association": "CONTRIBUTOR",
      "active_lock_reason": null,
      "body": "@tensorflow/micro\r\n\r\n**System information**\r\n- Host OS Platform and Distribution (e.g., Linux Ubuntu 16.04): macOS Catalina 10.15.7\r\n- TensorFlow installed from (source or binary): binary\r\n- Tensorflow version (commit SHA if source):\r\n- Target platform (e.g. Arm Mbed OS, Arduino Nano 33 etc.): macOS\r\n\r\n**Describe the problem**\r\nError when running\r\n```\r\nmake -f tensorflow/lite/micro/tools/make/Makefile micro_speech\r\n```\r\n\r\nError message:\r\n```\r\ntensorflow/lite/micro/examples/micro_speech/osx/audio_provider.cc:64:48: error: missing field 'mFormatID' initializer [-Werror,-Wmissing-field-initializers]\r\n  AudioStreamBasicDescription recordFormat = {0};\r\n                                               ^\r\n1 error generated.\r\ngmake: *** [tensorflow/lite/micro/tools/make/Makefile:623: tensorflow/lite/micro/tools/make/gen/osx_x86_64/obj/tensorflow/lite/micro/examples/micro_speech/osx/audio_provider.o] Error 1\r\n```\r\n\r\n**Please provide the exact sequence of commands/steps when you ran into the problem**\r\n\r\n\r\n",
      "reactions": {
        "url": "https://api.github.com/repos/tensorflow/tensorflow/issues/46218/reactions",
        "total_count": 0,
        "+1": 0,
        "-1": 0,
        "laugh": 0,
        "hooray": 0,
        "confused": 0,
        "heart": 0,
        "rocket": 0,
        "eyes": 0
      },
      "timeline_url": "https://api.github.com/repos/tensorflow/tensorflow/issues/46218/timeline",
      "performed_via_github_app": null,
      "score": 1.0
    },
    {
      "url": "https://api.github.com/repos/tensorflow/tensorflow/issues/46170",
      "repository_url": "https://api.github.com/repos/tensorflow/tensorflow",
      "labels_url": "https://api.github.com/repos/tensorflow/tensorflow/issues/46170/labels{/name}",
      "comments_url": "https://api.github.com/repos/tensorflow/tensorflow/issues/46170/comments",
      "events_url": "https://api.github.com/repos/tensorflow/tensorflow/issues/46170/events",
      "html_url": "https://github.com/tensorflow/tensorflow/issues/46170",
      "id": 778773165,
      "node_id": "MDU6SXNzdWU3Nzg3NzMxNjU=",
      "number": 46170,
      "title": "Though EXTERNAL delegate is explicitly applied, the model will not be executed by the delegate",
      "user": {
        "login": "keidav01",
        "id": 44364602,
        "node_id": "MDQ6VXNlcjQ0MzY0NjAy",
        "avatar_url": "https://avatars.githubusercontent.com/u/44364602?v=4",
        "gravatar_id": "",
        "url": "https://api.github.com/users/keidav01",
        "html_url": "https://github.com/keidav01",
        "followers_url": "https://api.github.com/users/keidav01/followers",
        "following_url": "https://api.github.com/users/keidav01/following{/other_user}",
        "gists_url": "https://api.github.com/users/keidav01/gists{/gist_id}",
        "starred_url": "https://api.github.com/users/keidav01/starred{/owner}{/repo}",
        "subscriptions_url": "https://api.github.com/users/keidav01/subscriptions",
        "organizations_url": "https://api.github.com/users/keidav01/orgs",
        "repos_url": "https://api.github.com/users/keidav01/repos",
        "events_url": "https://api.github.com/users/keidav01/events{/privacy}",
        "received_events_url": "https://api.github.com/users/keidav01/received_events",
        "type": "User",
        "site_admin": false
      },
      "labels": [
        {
          "id": 473184161,
          "node_id": "MDU6TGFiZWw0NzMxODQxNjE=",
          "url": "https://api.github.com/repos/tensorflow/tensorflow/labels/type:support",
          "name": "type:support",
          "color": "159b2e",
          "default": false,
          "description": "Support issues"
        },
        {
          "id": 750616506,
          "node_id": "MDU6TGFiZWw3NTA2MTY1MDY=",
          "url": "https://api.github.com/repos/tensorflow/tensorflow/labels/comp:lite",
          "name": "comp:lite",
          "color": "0052cc",
          "default": false,
          "description": "TF Lite related issues"
        },
        {
          "id": 1946362326,
          "node_id": "MDU6TGFiZWwxOTQ2MzYyMzI2",
          "url": "https://api.github.com/repos/tensorflow/tensorflow/labels/TF%202.3",
          "name": "TF 2.3",
          "color": "1d76db",
          "default": false,
          "description": "Issues related to TF 2.3"
        }
      ],
      "state": "closed",
      "locked": false,
      "assignee": {
        "login": "multiverse-tf",
        "id": 48348070,
        "node_id": "MDQ6VXNlcjQ4MzQ4MDcw",
        "avatar_url": "https://avatars.githubusercontent.com/u/48348070?v=4",
        "gravatar_id": "",
        "url": "https://api.github.com/users/multiverse-tf",
        "html_url": "https://github.com/multiverse-tf",
        "followers_url": "https://api.github.com/users/multiverse-tf/followers",
        "following_url": "https://api.github.com/users/multiverse-tf/following{/other_user}",
        "gists_url": "https://api.github.com/users/multiverse-tf/gists{/gist_id}",
        "starred_url": "https://api.github.com/users/multiverse-tf/starred{/owner}{/repo}",
        "subscriptions_url": "https://api.github.com/users/multiverse-tf/subscriptions",
        "organizations_url": "https://api.github.com/users/multiverse-tf/orgs",
        "repos_url": "https://api.github.com/users/multiverse-tf/repos",
        "events_url": "https://api.github.com/users/multiverse-tf/events{/privacy}",
        "received_events_url": "https://api.github.com/users/multiverse-tf/received_events",
        "type": "User",
        "site_admin": false
      },
      "assignees": [
        {
          "login": "multiverse-tf",
          "id": 48348070,
          "node_id": "MDQ6VXNlcjQ4MzQ4MDcw",
          "avatar_url": "https://avatars.githubusercontent.com/u/48348070?v=4",
          "gravatar_id": "",
          "url": "https://api.github.com/users/multiverse-tf",
          "html_url": "https://github.com/multiverse-tf",
          "followers_url": "https://api.github.com/users/multiverse-tf/followers",
          "following_url": "https://api.github.com/users/multiverse-tf/following{/other_user}",
          "gists_url": "https://api.github.com/users/multiverse-tf/gists{/gist_id}",
          "starred_url": "https://api.github.com/users/multiverse-tf/starred{/owner}{/repo}",
          "subscriptions_url": "https://api.github.com/users/multiverse-tf/subscriptions",
          "organizations_url": "https://api.github.com/users/multiverse-tf/orgs",
          "repos_url": "https://api.github.com/users/multiverse-tf/repos",
          "events_url": "https://api.github.com/users/multiverse-tf/events{/privacy}",
          "received_events_url": "https://api.github.com/users/multiverse-tf/received_events",
          "type": "User",
          "site_admin": false
        }
      ],
      "milestone": null,
      "comments": 24,
      "created_at": "2021-01-05T09:03:56Z",
      "updated_at": "2021-01-29T03:02:06Z",
      "closed_at": "2021-01-29T03:02:03Z",
      "author_association": "NONE",
      "active_lock_reason": null,
      "body": "Apologies if this is in the incorrect category, but is more clarification that I am looking for rather than an issue with the implemented code. \r\n\r\n**System information**\r\n\r\nHave I written custom code (as opposed to using a stock example script provided in TensorFlow): **Yes**\r\nOS Platform and Distribution (e.g., Linux Ubuntu 16.04): **Ubuntu 20.04.1 LTS**\r\nMobile device (e.g. iPhone 8, Pixel 2, Samsung Galaxy) if the issue happens on mobile device: N/A\r\nTensorFlow installed from (source or binary): **Source**\r\nTensorFlow version (use command below): **v2.3.1**\r\nPython version: N/A\r\nBazel version (if compiling from source): **3.1.0**\r\nGCC/Compiler version (if compiling from source): **6.3.0**\r\nCUDA/cuDNN version: N/A\r\nGPU model and memory: N/A\r\n\r\n**Describe the current behavior**\r\n\r\nI'm currently looking into benchmarking a custom delegate against XNNPACK. I've done so through the second option specified in the tensorflow documentation (using the external delegate options within the benchmark tool). \r\n\r\nI downloaded the binary for the benchmarking tool itself here (linux aarch64) rather than building source: https://www.tensorflow.org/lite/performance/measurement#native_benchmark_binary\r\n\r\nWhen I run the benchmarking tool for the custom delegate, I get the info message specified in the title: \r\n_\"Though EXTERNAL delegate is explicitly applied, the model will not be executed by the delegate\"_\r\n\r\nI'm not sure what this is telling me. I've looked through the the tensorflow codebase and, from where I've looked, these output messages are no where in **_tensorflow/tensorflow/lite_**. Going up a level or two, I still can't find anything of similar. \r\n\r\nWhen running with xnnpack set to true, I get the output message _**\"Explicitly applied XNNPACK delegate, and the model graph will be partially executed by the delegate w/ 4 delegate kernels.\"**_. This is a little more self explanatory, and I can see that some of the code for this message was generated at tensorflow/tensorflow/lite/tools/benchmark/benchmark_tflite_model.cc:666.\r\n\r\nI added some debug information within the custom delegate and I can see that, when running the benchmark_model tool, I am creating the optimized delegate graph I expect. I am also seeing the numbers that I expect to see for the benchmarking against XNNPACK.\r\n\r\nHowever, the message seems to make it out as if the custom delegate has been created, but is not used during the benchmarking. Is this true? I would appreciate any clarity at your earliest convenience. Thank you!",
      "reactions": {
        "url": "https://api.github.com/repos/tensorflow/tensorflow/issues/46170/reactions",
        "total_count": 0,
        "+1": 0,
        "-1": 0,
        "laugh": 0,
        "hooray": 0,
        "confused": 0,
        "heart": 0,
        "rocket": 0,
        "eyes": 0
      },
      "timeline_url": "https://api.github.com/repos/tensorflow/tensorflow/issues/46170/timeline",
      "performed_via_github_app": null,
      "score": 1.0
    },
    {
      "url": "https://api.github.com/repos/tensorflow/tensorflow/issues/46113",
      "repository_url": "https://api.github.com/repos/tensorflow/tensorflow",
      "labels_url": "https://api.github.com/repos/tensorflow/tensorflow/issues/46113/labels{/name}",
      "comments_url": "https://api.github.com/repos/tensorflow/tensorflow/issues/46113/comments",
      "events_url": "https://api.github.com/repos/tensorflow/tensorflow/issues/46113/events",
      "html_url": "https://github.com/tensorflow/tensorflow/issues/46113",
      "id": 777537735,
      "node_id": "MDU6SXNzdWU3Nzc1Mzc3MzU=",
      "number": 46113,
      "title": "RPi Zero(ARMv6l) _FusedConv2D <no registered kernels>",
      "user": {
        "login": "mightyfapper",
        "id": 46964998,
        "node_id": "MDQ6VXNlcjQ2OTY0OTk4",
        "avatar_url": "https://avatars.githubusercontent.com/u/46964998?v=4",
        "gravatar_id": "",
        "url": "https://api.github.com/users/mightyfapper",
        "html_url": "https://github.com/mightyfapper",
        "followers_url": "https://api.github.com/users/mightyfapper/followers",
        "following_url": "https://api.github.com/users/mightyfapper/following{/other_user}",
        "gists_url": "https://api.github.com/users/mightyfapper/gists{/gist_id}",
        "starred_url": "https://api.github.com/users/mightyfapper/starred{/owner}{/repo}",
        "subscriptions_url": "https://api.github.com/users/mightyfapper/subscriptions",
        "organizations_url": "https://api.github.com/users/mightyfapper/orgs",
        "repos_url": "https://api.github.com/users/mightyfapper/repos",
        "events_url": "https://api.github.com/users/mightyfapper/events{/privacy}",
        "received_events_url": "https://api.github.com/users/mightyfapper/received_events",
        "type": "User",
        "site_admin": false
      },
      "labels": [
        {
          "id": 473184161,
          "node_id": "MDU6TGFiZWw0NzMxODQxNjE=",
          "url": "https://api.github.com/repos/tensorflow/tensorflow/labels/type:support",
          "name": "type:support",
          "color": "159b2e",
          "default": false,
          "description": "Support issues"
        },
        {
          "id": 750616506,
          "node_id": "MDU6TGFiZWw3NTA2MTY1MDY=",
          "url": "https://api.github.com/repos/tensorflow/tensorflow/labels/comp:lite",
          "name": "comp:lite",
          "color": "0052cc",
          "default": false,
          "description": "TF Lite related issues"
        },
        {
          "id": 2477739347,
          "node_id": "MDU6TGFiZWwyNDc3NzM5MzQ3",
          "url": "https://api.github.com/repos/tensorflow/tensorflow/labels/TF%202.4",
          "name": "TF 2.4",
          "color": "5319e7",
          "default": false,
          "description": "for issues related to TF 2.4"
        }
      ],
      "state": "closed",
      "locked": false,
      "assignee": {
        "login": "ravikyram",
        "id": 51902062,
        "node_id": "MDQ6VXNlcjUxOTAyMDYy",
        "avatar_url": "https://avatars.githubusercontent.com/u/51902062?v=4",
        "gravatar_id": "",
        "url": "https://api.github.com/users/ravikyram",
        "html_url": "https://github.com/ravikyram",
        "followers_url": "https://api.github.com/users/ravikyram/followers",
        "following_url": "https://api.github.com/users/ravikyram/following{/other_user}",
        "gists_url": "https://api.github.com/users/ravikyram/gists{/gist_id}",
        "starred_url": "https://api.github.com/users/ravikyram/starred{/owner}{/repo}",
        "subscriptions_url": "https://api.github.com/users/ravikyram/subscriptions",
        "organizations_url": "https://api.github.com/users/ravikyram/orgs",
        "repos_url": "https://api.github.com/users/ravikyram/repos",
        "events_url": "https://api.github.com/users/ravikyram/events{/privacy}",
        "received_events_url": "https://api.github.com/users/ravikyram/received_events",
        "type": "User",
        "site_admin": false
      },
      "assignees": [
        {
          "login": "ravikyram",
          "id": 51902062,
          "node_id": "MDQ6VXNlcjUxOTAyMDYy",
          "avatar_url": "https://avatars.githubusercontent.com/u/51902062?v=4",
          "gravatar_id": "",
          "url": "https://api.github.com/users/ravikyram",
          "html_url": "https://github.com/ravikyram",
          "followers_url": "https://api.github.com/users/ravikyram/followers",
          "following_url": "https://api.github.com/users/ravikyram/following{/other_user}",
          "gists_url": "https://api.github.com/users/ravikyram/gists{/gist_id}",
          "starred_url": "https://api.github.com/users/ravikyram/starred{/owner}{/repo}",
          "subscriptions_url": "https://api.github.com/users/ravikyram/subscriptions",
          "organizations_url": "https://api.github.com/users/ravikyram/orgs",
          "repos_url": "https://api.github.com/users/ravikyram/repos",
          "events_url": "https://api.github.com/users/ravikyram/events{/privacy}",
          "received_events_url": "https://api.github.com/users/ravikyram/received_events",
          "type": "User",
          "site_admin": false
        }
      ],
      "milestone": null,
      "comments": 1,
      "created_at": "2021-01-02T22:49:14Z",
      "updated_at": "2021-01-04T04:49:19Z",
      "closed_at": "2021-01-04T01:50:16Z",
      "author_association": "NONE",
      "active_lock_reason": null,
      "body": "**System information**\r\n- Using Keras MobileNet model\r\n- Platform: RPi Zero (armv6l)\r\n- Tested on binaries: v1.14.0 from piwheel / v2.4.0 from [https://github.com/lhelontra/tensorflow-on-arm/releases/tag/v2.4.0](url)\r\n- Python version: 3.7\r\n\r\n**Describe the current behavior**\r\nError when attempting model.predict on RPi zero using keras.apps MobileNet model\r\nAttempting _FusedConv2D calculation via a non existing kernel\r\n\r\n**Describe the expected behavior**\r\nAttempted unfused conv2D + relu since armv6l doesnt support it\r\nSuccessful forward pass calculation of model\r\n\r\n**Standalone code to reproduce the issue**\r\nhttps://pastebin.com/4syM43S1\r\n\r\nReproducable when applied on RPi Zero \r\nlibs:\r\n- atlasbase\r\n- hdf5\r\n- openjp2\r\n- tiff5\r\n\r\npip: \r\n- tf\r\n- keras\r\n- h5py\r\n- pillow\r\n\r\n**Other info / logs**\r\nTrace (TF v2.4.0): https://pastebin.com/QNFsJjkJ\r\n\r\nHaving same issue as open:  https://github.com/tensorflow/tensorflow/issues/24732\r\n\r\nCould a possible work around for this issue be to enter the TFLite path?\r\nOr can FusedConv2D be disabled before building binary?\r\n\r\nThank you.\r\n\r\n**EDIT**: TFLite path was great \r\nhttps://github.com/google-coral/pycoral/issues/7\r\nhttps://github.com/google-coral/edgetpu/issues/229\r\nhttps://drive.google.com/file/d/1mW8QGmhfk4kRYXqUTEH1ckPUNIsl7S3d/view\r\nhttps://www.tensorflow.org/lite/guide/inference#load_and_run_a_model_in_python",
      "reactions": {
        "url": "https://api.github.com/repos/tensorflow/tensorflow/issues/46113/reactions",
        "total_count": 0,
        "+1": 0,
        "-1": 0,
        "laugh": 0,
        "hooray": 0,
        "confused": 0,
        "heart": 0,
        "rocket": 0,
        "eyes": 0
      },
      "timeline_url": "https://api.github.com/repos/tensorflow/tensorflow/issues/46113/timeline",
      "performed_via_github_app": null,
      "score": 1.0
    },
    {
      "url": "https://api.github.com/repos/tensorflow/tensorflow/issues/46109",
      "repository_url": "https://api.github.com/repos/tensorflow/tensorflow",
      "labels_url": "https://api.github.com/repos/tensorflow/tensorflow/issues/46109/labels{/name}",
      "comments_url": "https://api.github.com/repos/tensorflow/tensorflow/issues/46109/comments",
      "events_url": "https://api.github.com/repos/tensorflow/tensorflow/issues/46109/events",
      "html_url": "https://github.com/tensorflow/tensorflow/issues/46109",
      "id": 777506046,
      "node_id": "MDU6SXNzdWU3Nzc1MDYwNDY=",
      "number": 46109,
      "title": "tensorflow lite model hangs in tflite.run in android emulator",
      "user": {
        "login": "Emmanuel357",
        "id": 76881407,
        "node_id": "MDQ6VXNlcjc2ODgxNDA3",
        "avatar_url": "https://avatars.githubusercontent.com/u/76881407?v=4",
        "gravatar_id": "",
        "url": "https://api.github.com/users/Emmanuel357",
        "html_url": "https://github.com/Emmanuel357",
        "followers_url": "https://api.github.com/users/Emmanuel357/followers",
        "following_url": "https://api.github.com/users/Emmanuel357/following{/other_user}",
        "gists_url": "https://api.github.com/users/Emmanuel357/gists{/gist_id}",
        "starred_url": "https://api.github.com/users/Emmanuel357/starred{/owner}{/repo}",
        "subscriptions_url": "https://api.github.com/users/Emmanuel357/subscriptions",
        "organizations_url": "https://api.github.com/users/Emmanuel357/orgs",
        "repos_url": "https://api.github.com/users/Emmanuel357/repos",
        "events_url": "https://api.github.com/users/Emmanuel357/events{/privacy}",
        "received_events_url": "https://api.github.com/users/Emmanuel357/received_events",
        "type": "User",
        "site_admin": false
      },
      "labels": [
        {
          "id": 473184161,
          "node_id": "MDU6TGFiZWw0NzMxODQxNjE=",
          "url": "https://api.github.com/repos/tensorflow/tensorflow/labels/type:support",
          "name": "type:support",
          "color": "159b2e",
          "default": false,
          "description": "Support issues"
        },
        {
          "id": 750616506,
          "node_id": "MDU6TGFiZWw3NTA2MTY1MDY=",
          "url": "https://api.github.com/repos/tensorflow/tensorflow/labels/comp:lite",
          "name": "comp:lite",
          "color": "0052cc",
          "default": false,
          "description": "TF Lite related issues"
        },
        {
          "id": 1946362326,
          "node_id": "MDU6TGFiZWwxOTQ2MzYyMzI2",
          "url": "https://api.github.com/repos/tensorflow/tensorflow/labels/TF%202.3",
          "name": "TF 2.3",
          "color": "1d76db",
          "default": false,
          "description": "Issues related to TF 2.3"
        }
      ],
      "state": "closed",
      "locked": false,
      "assignee": {
        "login": "thaink",
        "id": 12351501,
        "node_id": "MDQ6VXNlcjEyMzUxNTAx",
        "avatar_url": "https://avatars.githubusercontent.com/u/12351501?v=4",
        "gravatar_id": "",
        "url": "https://api.github.com/users/thaink",
        "html_url": "https://github.com/thaink",
        "followers_url": "https://api.github.com/users/thaink/followers",
        "following_url": "https://api.github.com/users/thaink/following{/other_user}",
        "gists_url": "https://api.github.com/users/thaink/gists{/gist_id}",
        "starred_url": "https://api.github.com/users/thaink/starred{/owner}{/repo}",
        "subscriptions_url": "https://api.github.com/users/thaink/subscriptions",
        "organizations_url": "https://api.github.com/users/thaink/orgs",
        "repos_url": "https://api.github.com/users/thaink/repos",
        "events_url": "https://api.github.com/users/thaink/events{/privacy}",
        "received_events_url": "https://api.github.com/users/thaink/received_events",
        "type": "User",
        "site_admin": false
      },
      "assignees": [
        {
          "login": "thaink",
          "id": 12351501,
          "node_id": "MDQ6VXNlcjEyMzUxNTAx",
          "avatar_url": "https://avatars.githubusercontent.com/u/12351501?v=4",
          "gravatar_id": "",
          "url": "https://api.github.com/users/thaink",
          "html_url": "https://github.com/thaink",
          "followers_url": "https://api.github.com/users/thaink/followers",
          "following_url": "https://api.github.com/users/thaink/following{/other_user}",
          "gists_url": "https://api.github.com/users/thaink/gists{/gist_id}",
          "starred_url": "https://api.github.com/users/thaink/starred{/owner}{/repo}",
          "subscriptions_url": "https://api.github.com/users/thaink/subscriptions",
          "organizations_url": "https://api.github.com/users/thaink/orgs",
          "repos_url": "https://api.github.com/users/thaink/repos",
          "events_url": "https://api.github.com/users/thaink/events{/privacy}",
          "received_events_url": "https://api.github.com/users/thaink/received_events",
          "type": "User",
          "site_admin": false
        }
      ],
      "milestone": null,
      "comments": 13,
      "created_at": "2021-01-02T18:40:38Z",
      "updated_at": "2021-01-26T23:49:08Z",
      "closed_at": "2021-01-26T23:49:07Z",
      "author_association": "NONE",
      "active_lock_reason": null,
      "body": "Please go to Stack Overflow for help and support:\r\n\r\nhttps://stackoverflow.com/questions/tagged/tensorflow\r\n\r\nIf you open a GitHub issue, here is our policy:\r\n\r\n1.  It must be a bug, a feature request, or a significant problem with the\r\n    documentation (for small docs fixes please send a PR instead).\r\n2.  The form below must be filled out.\r\n3.  It shouldn't be a TensorBoard issue. Those go\r\n    [here](https://github.com/tensorflow/tensorboard/issues).\r\n\r\n**Here's why we have that policy**: TensorFlow developers respond to issues. We want to focus on work that benefits the whole community, e.g., fixing bugs and adding features. Support only helps individuals. GitHub also notifies thousands of people when issues are filed. We want them to see you communicating an interesting problem, rather than being redirected to Stack Overflow.\r\n\r\n------------------------\r\n\r\n### System information\r\n\r\n-   **Have I written custom code (as opposed to using a stock example script provided in TensorFlow)**:\r\n     \r\n-   **OS Platform and Distribution (e.g., Linux Ubuntu 16.04)**: \r\n     Linux Ubuntu 20.04\r\n-   **Mobile device (e.g. iPhone 8, Pixel 2, Samsung Galaxy) if the issue happens on a mobile device**:\r\n     Android emulator.\r\n-   **TensorFlow installed from (source or binary)**:\r\n    Installed from source\r\n-   **TensorFlow version (use command below)**:\r\n    Tensorflow version used to convert tf model to tflite: 2.5.0\r\n    Tensorflow version and tf op version:  2.3.0\r\n\r\n-   **Python version**: 3.8.0\r\n-   **Bazel version (if compiling from source)**:\r\n-   **GCC/Compiler version (if compiling from source)**:\r\n-   **CUDA/cuDNN version**:\r\n-   **GPU model and memory**:\r\n-   **Exact command to reproduce**:\r\n\r\nYou can collect some of this information using our environment capture script:\r\n\r\nhttps://github.com/tensorflow/tensorflow/tree/master/tools/tf_env_collect.sh\r\n\r\nYou can obtain the TensorFlow version with:\r\n\r\n```bash\r\npython -c \"import tensorflow as tf; print(tf.version.GIT_VERSION, tf.version.VERSION)\"\r\n```\r\n\r\n### Describe the problem\r\nDescribe the problem clearly here. Be sure to convey here why it's a bug in TensorFlow or a feature request.\r\n\r\n### Source code / logs\r\nInclude any logs or source code that would be helpful to diagnose the problem. If including tracebacks, please include the full traceback. Large logs and files should be attached. Try to provide a reproducible test case that is the bare minimum necessary to generate the problem.\r\n",
      "reactions": {
        "url": "https://api.github.com/repos/tensorflow/tensorflow/issues/46109/reactions",
        "total_count": 0,
        "+1": 0,
        "-1": 0,
        "laugh": 0,
        "hooray": 0,
        "confused": 0,
        "heart": 0,
        "rocket": 0,
        "eyes": 0
      },
      "timeline_url": "https://api.github.com/repos/tensorflow/tensorflow/issues/46109/timeline",
      "performed_via_github_app": null,
      "score": 1.0
    },
    {
      "url": "https://api.github.com/repos/tensorflow/tensorflow/issues/46100",
      "repository_url": "https://api.github.com/repos/tensorflow/tensorflow",
      "labels_url": "https://api.github.com/repos/tensorflow/tensorflow/issues/46100/labels{/name}",
      "comments_url": "https://api.github.com/repos/tensorflow/tensorflow/issues/46100/comments",
      "events_url": "https://api.github.com/repos/tensorflow/tensorflow/issues/46100/events",
      "html_url": "https://github.com/tensorflow/tensorflow/issues/46100",
      "id": 777252497,
      "node_id": "MDU6SXNzdWU3NzcyNTI0OTc=",
      "number": 46100,
      "title": "Exported TFLite Inference Graph (Step 1), but can't Convert to TFLite (Step 2)",
      "user": {
        "login": "stephentandjiria",
        "id": 75295743,
        "node_id": "MDQ6VXNlcjc1Mjk1NzQz",
        "avatar_url": "https://avatars.githubusercontent.com/u/75295743?v=4",
        "gravatar_id": "",
        "url": "https://api.github.com/users/stephentandjiria",
        "html_url": "https://github.com/stephentandjiria",
        "followers_url": "https://api.github.com/users/stephentandjiria/followers",
        "following_url": "https://api.github.com/users/stephentandjiria/following{/other_user}",
        "gists_url": "https://api.github.com/users/stephentandjiria/gists{/gist_id}",
        "starred_url": "https://api.github.com/users/stephentandjiria/starred{/owner}{/repo}",
        "subscriptions_url": "https://api.github.com/users/stephentandjiria/subscriptions",
        "organizations_url": "https://api.github.com/users/stephentandjiria/orgs",
        "repos_url": "https://api.github.com/users/stephentandjiria/repos",
        "events_url": "https://api.github.com/users/stephentandjiria/events{/privacy}",
        "received_events_url": "https://api.github.com/users/stephentandjiria/received_events",
        "type": "User",
        "site_admin": false
      },
      "labels": [
        {
          "id": 473184161,
          "node_id": "MDU6TGFiZWw0NzMxODQxNjE=",
          "url": "https://api.github.com/repos/tensorflow/tensorflow/labels/type:support",
          "name": "type:support",
          "color": "159b2e",
          "default": false,
          "description": "Support issues"
        },
        {
          "id": 750616506,
          "node_id": "MDU6TGFiZWw3NTA2MTY1MDY=",
          "url": "https://api.github.com/repos/tensorflow/tensorflow/labels/comp:lite",
          "name": "comp:lite",
          "color": "0052cc",
          "default": false,
          "description": "TF Lite related issues"
        },
        {
          "id": 1661751498,
          "node_id": "MDU6TGFiZWwxNjYxNzUxNDk4",
          "url": "https://api.github.com/repos/tensorflow/tensorflow/labels/TFLiteConverter",
          "name": "TFLiteConverter",
          "color": "bfdadc",
          "default": false,
          "description": "For issues related to TFLite converter"
        },
        {
          "id": 2477739347,
          "node_id": "MDU6TGFiZWwyNDc3NzM5MzQ3",
          "url": "https://api.github.com/repos/tensorflow/tensorflow/labels/TF%202.4",
          "name": "TF 2.4",
          "color": "5319e7",
          "default": false,
          "description": "for issues related to TF 2.4"
        }
      ],
      "state": "closed",
      "locked": false,
      "assignee": {
        "login": "karimnosseir",
        "id": 44206880,
        "node_id": "MDQ6VXNlcjQ0MjA2ODgw",
        "avatar_url": "https://avatars.githubusercontent.com/u/44206880?v=4",
        "gravatar_id": "",
        "url": "https://api.github.com/users/karimnosseir",
        "html_url": "https://github.com/karimnosseir",
        "followers_url": "https://api.github.com/users/karimnosseir/followers",
        "following_url": "https://api.github.com/users/karimnosseir/following{/other_user}",
        "gists_url": "https://api.github.com/users/karimnosseir/gists{/gist_id}",
        "starred_url": "https://api.github.com/users/karimnosseir/starred{/owner}{/repo}",
        "subscriptions_url": "https://api.github.com/users/karimnosseir/subscriptions",
        "organizations_url": "https://api.github.com/users/karimnosseir/orgs",
        "repos_url": "https://api.github.com/users/karimnosseir/repos",
        "events_url": "https://api.github.com/users/karimnosseir/events{/privacy}",
        "received_events_url": "https://api.github.com/users/karimnosseir/received_events",
        "type": "User",
        "site_admin": false
      },
      "assignees": [
        {
          "login": "karimnosseir",
          "id": 44206880,
          "node_id": "MDQ6VXNlcjQ0MjA2ODgw",
          "avatar_url": "https://avatars.githubusercontent.com/u/44206880?v=4",
          "gravatar_id": "",
          "url": "https://api.github.com/users/karimnosseir",
          "html_url": "https://github.com/karimnosseir",
          "followers_url": "https://api.github.com/users/karimnosseir/followers",
          "following_url": "https://api.github.com/users/karimnosseir/following{/other_user}",
          "gists_url": "https://api.github.com/users/karimnosseir/gists{/gist_id}",
          "starred_url": "https://api.github.com/users/karimnosseir/starred{/owner}{/repo}",
          "subscriptions_url": "https://api.github.com/users/karimnosseir/subscriptions",
          "organizations_url": "https://api.github.com/users/karimnosseir/orgs",
          "repos_url": "https://api.github.com/users/karimnosseir/repos",
          "events_url": "https://api.github.com/users/karimnosseir/events{/privacy}",
          "received_events_url": "https://api.github.com/users/karimnosseir/received_events",
          "type": "User",
          "site_admin": false
        }
      ],
      "milestone": null,
      "comments": 12,
      "created_at": "2021-01-01T09:36:35Z",
      "updated_at": "2021-06-04T18:21:50Z",
      "closed_at": "2021-06-04T18:21:48Z",
      "author_association": "NONE",
      "active_lock_reason": null,
      "body": "**System information**\r\n- OS Platform and Distribution (e.g., Linux Ubuntu 16.04): Windows 10\r\n- TensorFlow installed from (source or binary): from Anaconda command using pip install\r\n- TensorFlow version (or github SHA if from source): 2.4.0\r\n\r\n**What I did**\r\n\r\nBased on:\r\n[https://github.com/tensorflow/models/blob/master/research/object_detection/g3doc/running_on_mobile_tf2.md](https://github.com/tensorflow/models/blob/master/research/object_detection/g3doc/running_on_mobile_tf2.md)\r\n\r\n### Step 1 : Export TFLite inference graph\r\n**Step 1.1 : Input via Anaconda command**\r\n```\r\ncd D:\\Documents\\AI\\Github Trials\\models-master\\research\r\n\r\nset PYTHONPATH=`pwd`:`pwd`/slim\r\npython setup.py build\r\npython setup.py install\r\npip install tf-slim\r\nprotoc object_detection/protos/*.proto --python_out=.\r\npip install .\r\npip install tf-models-official\r\n\r\npython object_detection/export_tflite_graph_tf2.py  --pipeline_config_path object_detection/ssd_mobilenet_v2_320x320_coco17_tpu-8/pipeline.config  --trained_checkpoint_dir object_detection/ssd_mobilenet_v2_320x320_coco17_tpu-8/checkpoint  --output_directory object_detection/ssd_mobilenet_v2_320x320_coco17_tpu-8/tflite_inference_graph\r\n```\r\n**Step 1.2 : Output from Anaconda Command**\r\nEmphasis on the following part of the Output\r\n```\r\nWARNING:tensorflow:AutoGraph could not transform <bound method SSDModule.inference_fn of <tensorflow.python.eager.functi\r\non.TfMethodTarget object at 0x00000236A95C61C8>> and will run it as-is.\r\nPlease report this to the TensorFlow team. When filing the bug, set the verbosity to 10 (on Linux, `export AUTOGRAPH_VER\r\nBOSITY=10`) and attach the full output.\r\nCause: module 'gast' has no attribute 'Constant'\r\n```\r\nFull version of the **same** Output\r\n```\r\nRequirement already satisfied: tf-models-official in d:\\anaconda3\\envs\\tf\\lib\\site-packages (2.3.0)\r\nRequirement already satisfied: kaggle>=1.3.9 in d:\\anaconda3\\envs\\tf\\lib\\site-packages (from tf-models-official) (1.5.10\r\n)\r\nRequirement already satisfied: tensorflow-model-optimization>=0.2.1 in d:\\anaconda3\\envs\\tf\\lib\\site-packages (from tf-m\r\nodels-official) (0.5.0)\r\nRequirement already satisfied: py-cpuinfo>=3.3.0 in d:\\anaconda3\\envs\\tf\\lib\\site-packages (from tf-models-official) (7.\r\n0.0)\r\nRequirement already satisfied: opencv-python-headless in d:\\anaconda3\\envs\\tf\\lib\\site-packages (from tf-models-official\r\n) (4.4.0.46)\r\nRequirement already satisfied: pandas>=0.22.0 in d:\\anaconda3\\envs\\tf\\lib\\site-packages (from tf-models-official) (1.1.4\r\n)\r\nRequirement already satisfied: six in d:\\anaconda3\\envs\\tf\\lib\\site-packages (from tf-models-official) (1.15.0)\r\nRequirement already satisfied: tensorflow-hub>=0.6.0 in d:\\anaconda3\\envs\\tf\\lib\\site-packages (from tf-models-official)\r\n (0.10.0)\r\nRequirement already satisfied: scipy>=0.19.1 in d:\\anaconda3\\envs\\tf\\lib\\site-packages (from tf-models-official) (1.4.1)\r\n\r\nRequirement already satisfied: tensorflow-addons in d:\\anaconda3\\envs\\tf\\lib\\site-packages (from tf-models-official) (0.\r\n12.0)\r\nRequirement already satisfied: pyyaml in d:\\anaconda3\\envs\\tf\\lib\\site-packages (from tf-models-official) (5.3.1)\r\nRequirement already satisfied: psutil>=5.4.3 in d:\\anaconda3\\envs\\tf\\lib\\site-packages (from tf-models-official) (5.7.2)\r\n\r\nRequirement already satisfied: matplotlib in d:\\anaconda3\\envs\\tf\\lib\\site-packages (from tf-models-official) (3.3.3)\r\nRequirement already satisfied: google-cloud-bigquery>=0.31.0 in d:\\anaconda3\\envs\\tf\\lib\\site-packages (from tf-models-o\r\nfficial) (2.6.1)\r\nRequirement already satisfied: tensorflow-datasets in d:\\anaconda3\\envs\\tf\\lib\\site-packages (from tf-models-official) (\r\n4.1.0)\r\nRequirement already satisfied: dataclasses in d:\\anaconda3\\envs\\tf\\lib\\site-packages (from tf-models-official) (0.6)\r\nRequirement already satisfied: tf-slim>=1.1.0 in d:\\anaconda3\\envs\\tf\\lib\\site-packages (from tf-models-official) (1.1.0\r\n)\r\nRequirement already satisfied: google-api-python-client>=1.6.7 in d:\\anaconda3\\envs\\tf\\lib\\site-packages (from tf-models\r\n-official) (1.12.8)\r\nRequirement already satisfied: Cython in d:\\anaconda3\\envs\\tf\\lib\\site-packages\\cython-3.0a6-py3.7-win-amd64.egg (from t\r\nf-models-official) (3.0a6)\r\nRequirement already satisfied: numpy>=1.15.4 in d:\\anaconda3\\envs\\tf\\lib\\site-packages (from tf-models-official) (1.19.4\r\n)\r\nRequirement already satisfied: Pillow in d:\\anaconda3\\envs\\tf\\lib\\site-packages (from tf-models-official) (8.0.1)\r\nRequirement already satisfied: gin-config in d:\\anaconda3\\envs\\tf\\lib\\site-packages (from tf-models-official) (0.4.0)\r\nRequirement already satisfied: tensorflow>=2.3.0 in d:\\anaconda3\\envs\\tf\\lib\\site-packages (from tf-models-official) (2.\r\n4.0)\r\nRequirement already satisfied: sentencepiece in d:\\anaconda3\\envs\\tf\\lib\\site-packages (from tf-models-official) (0.1.94\r\n)\r\nRequirement already satisfied: urllib3 in d:\\anaconda3\\envs\\tf\\lib\\site-packages (from kaggle>=1.3.9->tf-models-official\r\n) (1.25.11)\r\nRequirement already satisfied: python-slugify in d:\\anaconda3\\envs\\tf\\lib\\site-packages (from kaggle>=1.3.9->tf-models-o\r\nfficial) (4.0.1)\r\nRequirement already satisfied: requests in d:\\anaconda3\\envs\\tf\\lib\\site-packages (from kaggle>=1.3.9->tf-models-officia\r\nl) (2.24.0)\r\nRequirement already satisfied: python-dateutil in d:\\anaconda3\\envs\\tf\\lib\\site-packages (from kaggle>=1.3.9->tf-models-\r\nofficial) (2.8.1)\r\nRequirement already satisfied: certifi in d:\\anaconda3\\envs\\tf\\lib\\site-packages (from kaggle>=1.3.9->tf-models-official\r\n) (2020.6.20)\r\nRequirement already satisfied: tqdm in d:\\anaconda3\\envs\\tf\\lib\\site-packages (from kaggle>=1.3.9->tf-models-official) (\r\n4.54.0)\r\nRequirement already satisfied: dm-tree~=0.1.1 in d:\\anaconda3\\envs\\tf\\lib\\site-packages (from tensorflow-model-optimizat\r\nion>=0.2.1->tf-models-official) (0.1.5)\r\nRequirement already satisfied: pytz>=2017.2 in d:\\anaconda3\\envs\\tf\\lib\\site-packages (from pandas>=0.22.0->tf-models-of\r\nficial) (2020.1)\r\nRequirement already satisfied: protobuf>=3.8.0 in d:\\anaconda3\\envs\\tf\\lib\\site-packages (from tensorflow-hub>=0.6.0->tf\r\n-models-official) (3.13.0)\r\nRequirement already satisfied: typeguard>=2.7 in d:\\anaconda3\\envs\\tf\\lib\\site-packages (from tensorflow-addons->tf-mode\r\nls-official) (2.10.0)\r\nRequirement already satisfied: cycler>=0.10 in d:\\anaconda3\\envs\\tf\\lib\\site-packages (from matplotlib->tf-models-offici\r\nal) (0.10.0)\r\nRequirement already satisfied: pyparsing!=2.0.4,!=2.1.2,!=2.1.6,>=2.0.3 in d:\\anaconda3\\envs\\tf\\lib\\site-packages (from\r\nmatplotlib->tf-models-official) (2.4.7)\r\nRequirement already satisfied: kiwisolver>=1.0.1 in d:\\anaconda3\\envs\\tf\\lib\\site-packages (from matplotlib->tf-models-o\r\nfficial) (1.3.1)\r\nRequirement already satisfied: google-api-core[grpc]<2.0.0dev,>=1.23.0 in d:\\anaconda3\\envs\\tf\\lib\\site-packages (from g\r\noogle-cloud-bigquery>=0.31.0->tf-models-official) (1.24.1)\r\nRequirement already satisfied: proto-plus>=1.10.0 in d:\\anaconda3\\envs\\tf\\lib\\site-packages (from google-cloud-bigquery>\r\n=0.31.0->tf-models-official) (1.13.0)\r\nRequirement already satisfied: google-resumable-media<2.0dev,>=0.6.0 in d:\\anaconda3\\envs\\tf\\lib\\site-packages (from goo\r\ngle-cloud-bigquery>=0.31.0->tf-models-official) (1.2.0)\r\nRequirement already satisfied: google-cloud-core<2.0dev,>=1.4.1 in d:\\anaconda3\\envs\\tf\\lib\\site-packages (from google-c\r\nloud-bigquery>=0.31.0->tf-models-official) (1.5.0)\r\nRequirement already satisfied: termcolor in d:\\anaconda3\\envs\\tf\\lib\\site-packages (from tensorflow-datasets->tf-models-\r\nofficial) (1.1.0)\r\nRequirement already satisfied: typing-extensions; python_version < \"3.8\" in d:\\anaconda3\\envs\\tf\\lib\\site-packages (from\r\n tensorflow-datasets->tf-models-official) (3.7.4.3)\r\nRequirement already satisfied: importlib-resources; python_version < \"3.9\" in d:\\anaconda3\\envs\\tf\\lib\\site-packages (fr\r\nom tensorflow-datasets->tf-models-official) (3.3.0)\r\nRequirement already satisfied: dill in d:\\anaconda3\\envs\\tf\\lib\\site-packages (from tensorflow-datasets->tf-models-offic\r\nial) (0.3.3)\r\nRequirement already satisfied: absl-py in d:\\anaconda3\\envs\\tf\\lib\\site-packages (from tensorflow-datasets->tf-models-of\r\nficial) (0.11.0)\r\nRequirement already satisfied: attrs>=18.1.0 in d:\\anaconda3\\envs\\tf\\lib\\site-packages (from tensorflow-datasets->tf-mod\r\nels-official) (20.3.0)\r\nRequirement already satisfied: future in d:\\anaconda3\\envs\\tf\\lib\\site-packages (from tensorflow-datasets->tf-models-off\r\nicial) (0.18.2)\r\nRequirement already satisfied: promise in d:\\anaconda3\\envs\\tf\\lib\\site-packages (from tensorflow-datasets->tf-models-of\r\nficial) (2.3)\r\nRequirement already satisfied: tensorflow-metadata in d:\\anaconda3\\envs\\tf\\lib\\site-packages (from tensorflow-datasets->\r\ntf-models-official) (0.25.0)\r\nRequirement already satisfied: uritemplate<4dev,>=3.0.0 in d:\\anaconda3\\envs\\tf\\lib\\site-packages (from google-api-pytho\r\nn-client>=1.6.7->tf-models-official) (3.0.1)\r\nRequirement already satisfied: google-auth-httplib2>=0.0.3 in d:\\anaconda3\\envs\\tf\\lib\\site-packages (from google-api-py\r\nthon-client>=1.6.7->tf-models-official) (0.0.4)\r\nRequirement already satisfied: httplib2<1dev,>=0.15.0 in d:\\anaconda3\\envs\\tf\\lib\\site-packages (from google-api-python-\r\nclient>=1.6.7->tf-models-official) (0.18.1)\r\nRequirement already satisfied: google-auth>=1.16.0 in d:\\anaconda3\\envs\\tf\\lib\\site-packages (from google-api-python-cli\r\nent>=1.6.7->tf-models-official) (1.23.0)\r\nRequirement already satisfied: wheel~=0.35 in d:\\anaconda3\\envs\\tf\\lib\\site-packages (from tensorflow>=2.3.0->tf-models-\r\nofficial) (0.35.1)\r\nRequirement already satisfied: gast==0.3.3 in d:\\anaconda3\\envs\\tf\\lib\\site-packages (from tensorflow>=2.3.0->tf-models-\r\nofficial) (0.3.3)\r\nRequirement already satisfied: tensorboard~=2.4 in d:\\anaconda3\\envs\\tf\\lib\\site-packages (from tensorflow>=2.3.0->tf-mo\r\ndels-official) (2.4.0)\r\nRequirement already satisfied: google-pasta~=0.2 in d:\\anaconda3\\envs\\tf\\lib\\site-packages (from tensorflow>=2.3.0->tf-m\r\nodels-official) (0.2.0)\r\nRequirement already satisfied: astunparse~=1.6.3 in d:\\anaconda3\\envs\\tf\\lib\\site-packages (from tensorflow>=2.3.0->tf-m\r\nodels-official) (1.6.3)\r\nRequirement already satisfied: grpcio~=1.32.0 in d:\\anaconda3\\envs\\tf\\lib\\site-packages (from tensorflow>=2.3.0->tf-mode\r\nls-official) (1.32.0)\r\nRequirement already satisfied: wrapt~=1.12.1 in d:\\anaconda3\\envs\\tf\\lib\\site-packages (from tensorflow>=2.3.0->tf-model\r\ns-official) (1.12.1)\r\nRequirement already satisfied: keras-preprocessing~=1.1.2 in d:\\anaconda3\\envs\\tf\\lib\\site-packages (from tensorflow>=2.\r\n3.0->tf-models-official) (1.1.2)\r\nRequirement already satisfied: h5py~=2.10.0 in d:\\anaconda3\\envs\\tf\\lib\\site-packages (from tensorflow>=2.3.0->tf-models\r\n-official) (2.10.0)\r\nRequirement already satisfied: tensorflow-estimator<2.5.0,>=2.4.0rc0 in d:\\anaconda3\\envs\\tf\\lib\\site-packages (from ten\r\nsorflow>=2.3.0->tf-models-official) (2.4.0)\r\nRequirement already satisfied: flatbuffers~=1.12.0 in d:\\anaconda3\\envs\\tf\\lib\\site-packages (from tensorflow>=2.3.0->tf\r\n-models-official) (1.12)\r\nRequirement already satisfied: opt-einsum~=3.3.0 in d:\\anaconda3\\envs\\tf\\lib\\site-packages (from tensorflow>=2.3.0->tf-m\r\nodels-official) (3.3.0)\r\nRequirement already satisfied: text-unidecode>=1.3 in d:\\anaconda3\\envs\\tf\\lib\\site-packages (from python-slugify->kaggl\r\ne>=1.3.9->tf-models-official) (1.3)\r\nRequirement already satisfied: chardet<4,>=3.0.2 in d:\\anaconda3\\envs\\tf\\lib\\site-packages (from requests->kaggle>=1.3.9\r\n->tf-models-official) (3.0.4)\r\nRequirement already satisfied: idna<3,>=2.5 in d:\\anaconda3\\envs\\tf\\lib\\site-packages (from requests->kaggle>=1.3.9->tf-\r\nmodels-official) (2.10)\r\nRequirement already satisfied: setuptools in d:\\anaconda3\\envs\\tf\\lib\\site-packages (from protobuf>=3.8.0->tensorflow-hu\r\nb>=0.6.0->tf-models-official) (50.3.1.post20201107)\r\nRequirement already satisfied: googleapis-common-protos<2.0dev,>=1.6.0 in d:\\anaconda3\\envs\\tf\\lib\\site-packages (from g\r\noogle-api-core[grpc]<2.0.0dev,>=1.23.0->google-cloud-bigquery>=0.31.0->tf-models-official) (1.52.0)\r\nRequirement already satisfied: google-crc32c<2.0dev,>=1.0; python_version >= \"3.5\" in d:\\anaconda3\\envs\\tf\\lib\\site-pack\r\nages (from google-resumable-media<2.0dev,>=0.6.0->google-cloud-bigquery>=0.31.0->tf-models-official) (1.1.0)\r\nRequirement already satisfied: zipp>=0.4; python_version < \"3.8\" in d:\\anaconda3\\envs\\tf\\lib\\site-packages (from importl\r\nib-resources; python_version < \"3.9\"->tensorflow-datasets->tf-models-official) (3.4.0)\r\nRequirement already satisfied: rsa<5,>=3.1.4; python_version >= \"3.5\" in d:\\anaconda3\\envs\\tf\\lib\\site-packages (from go\r\nogle-auth>=1.16.0->google-api-python-client>=1.6.7->tf-models-official) (4.6)\r\nRequirement already satisfied: pyasn1-modules>=0.2.1 in d:\\anaconda3\\envs\\tf\\lib\\site-packages (from google-auth>=1.16.0\r\n->google-api-python-client>=1.6.7->tf-models-official) (0.2.8)\r\nRequirement already satisfied: cachetools<5.0,>=2.0.0 in d:\\anaconda3\\envs\\tf\\lib\\site-packages (from google-auth>=1.16.\r\n0->google-api-python-client>=1.6.7->tf-models-official) (4.1.1)\r\nRequirement already satisfied: tensorboard-plugin-wit>=1.6.0 in d:\\anaconda3\\envs\\tf\\lib\\site-packages (from tensorboard\r\n~=2.4->tensorflow>=2.3.0->tf-models-official) (1.6.0)\r\nRequirement already satisfied: markdown>=2.6.8 in d:\\anaconda3\\envs\\tf\\lib\\site-packages (from tensorboard~=2.4->tensorf\r\nlow>=2.3.0->tf-models-official) (3.3.2)\r\nRequirement already satisfied: werkzeug>=0.11.15 in d:\\anaconda3\\envs\\tf\\lib\\site-packages (from tensorboard~=2.4->tenso\r\nrflow>=2.3.0->tf-models-official) (0.16.1)\r\nRequirement already satisfied: google-auth-oauthlib<0.5,>=0.4.1 in d:\\anaconda3\\envs\\tf\\lib\\site-packages (from tensorbo\r\nard~=2.4->tensorflow>=2.3.0->tf-models-official) (0.4.2)\r\nRequirement already satisfied: cffi>=1.0.0 in d:\\anaconda3\\envs\\tf\\lib\\site-packages (from google-crc32c<2.0dev,>=1.0; p\r\nython_version >= \"3.5\"->google-resumable-media<2.0dev,>=0.6.0->google-cloud-bigquery>=0.31.0->tf-models-official) (1.14.\r\n3)\r\nRequirement already satisfied: pyasn1>=0.1.3 in d:\\anaconda3\\envs\\tf\\lib\\site-packages (from rsa<5,>=3.1.4; python_versi\r\non >= \"3.5\"->google-auth>=1.16.0->google-api-python-client>=1.6.7->tf-models-official) (0.4.8)\r\nRequirement already satisfied: importlib-metadata; python_version < \"3.8\" in d:\\anaconda3\\envs\\tf\\lib\\site-packages (fro\r\nm markdown>=2.6.8->tensorboard~=2.4->tensorflow>=2.3.0->tf-models-official) (2.0.0)\r\nRequirement already satisfied: requests-oauthlib>=0.7.0 in d:\\anaconda3\\envs\\tf\\lib\\site-packages (from google-auth-oaut\r\nhlib<0.5,>=0.4.1->tensorboard~=2.4->tensorflow>=2.3.0->tf-models-official) (1.3.0)\r\nRequirement already satisfied: pycparser in d:\\anaconda3\\envs\\tf\\lib\\site-packages (from cffi>=1.0.0->google-crc32c<2.0d\r\nev,>=1.0; python_version >= \"3.5\"->google-resumable-media<2.0dev,>=0.6.0->google-cloud-bigquery>=0.31.0->tf-models-offic\r\nial) (2.20)\r\nRequirement already satisfied: oauthlib>=3.0.0 in d:\\anaconda3\\envs\\tf\\lib\\site-packages (from requests-oauthlib>=0.7.0-\r\n>google-auth-oauthlib<0.5,>=0.4.1->tensorboard~=2.4->tensorflow>=2.3.0->tf-models-official) (3.1.0)\r\n\r\n(tf) D:\\Documents\\AI\\Github Trials\\models-master\\research>python object_detection/export_tflite_graph_tf2.py  --pipeline\r\n_config_path object_detection/ssd_mobilenet_v2_320x320_coco17_tpu-8/pipeline.config  --trained_checkpoint_dir object_det\r\nection/ssd_mobilenet_v2_320x320_coco17_tpu-8/checkpoint  --output_directory object_detection/ssd_mobilenet_v2_320x320_co\r\nco17_tpu-8/tflite_inference_graph\r\n2021-01-01 15:35:13.672770: I tensorflow/stream_executor/platform/default/dso_loader.cc:49] Successfully opened dynamic\r\nlibrary cudart64_110.dll\r\n2021-01-01 15:36:02.206834: I tensorflow/compiler/jit/xla_cpu_device.cc:41] Not creating XLA devices, tf_xla_enable_xla_\r\ndevices not set\r\n2021-01-01 15:36:02.245547: I tensorflow/stream_executor/platform/default/dso_loader.cc:49] Successfully opened dynamic\r\nlibrary nvcuda.dll\r\n2021-01-01 15:36:02.586806: I tensorflow/core/common_runtime/gpu/gpu_device.cc:1720] Found device 0 with properties:\r\npciBusID: 0000:01:00.0 name: GeForce GTX 1050 Ti computeCapability: 6.1\r\ncoreClock: 1.62GHz coreCount: 6 deviceMemorySize: 4.00GiB deviceMemoryBandwidth: 104.43GiB/s\r\n2021-01-01 15:36:02.607594: I tensorflow/stream_executor/platform/default/dso_loader.cc:49] Successfully opened dynamic\r\nlibrary cudart64_110.dll\r\n2021-01-01 15:36:03.530245: I tensorflow/stream_executor/platform/default/dso_loader.cc:49] Successfully opened dynamic\r\nlibrary cublas64_11.dll\r\n2021-01-01 15:36:03.532987: I tensorflow/stream_executor/platform/default/dso_loader.cc:49] Successfully opened dynamic\r\nlibrary cublasLt64_11.dll\r\n2021-01-01 15:36:03.896998: I tensorflow/stream_executor/platform/default/dso_loader.cc:49] Successfully opened dynamic\r\nlibrary cufft64_10.dll\r\n2021-01-01 15:36:04.091753: I tensorflow/stream_executor/platform/default/dso_loader.cc:49] Successfully opened dynamic\r\nlibrary curand64_10.dll\r\n2021-01-01 15:36:04.663251: I tensorflow/stream_executor/platform/default/dso_loader.cc:49] Successfully opened dynamic\r\nlibrary cusolver64_10.dll\r\n2021-01-01 15:36:05.073078: I tensorflow/stream_executor/platform/default/dso_loader.cc:49] Successfully opened dynamic\r\nlibrary cusparse64_11.dll\r\n2021-01-01 15:36:05.093508: I tensorflow/stream_executor/platform/default/dso_loader.cc:49] Successfully opened dynamic\r\nlibrary cudnn64_8.dll\r\n2021-01-01 15:36:05.218116: I tensorflow/core/common_runtime/gpu/gpu_device.cc:1862] Adding visible gpu devices: 0\r\n2021-01-01 15:36:05.287330: I tensorflow/core/platform/cpu_feature_guard.cc:142] This TensorFlow binary is optimized wit\r\nh oneAPI Deep Neural Network Library (oneDNN) to use the following CPU instructions in performance-critical operations:\r\n AVX2\r\nTo enable them in other operations, rebuild TensorFlow with the appropriate compiler flags.\r\n2021-01-01 15:36:05.334165: I tensorflow/core/common_runtime/gpu/gpu_device.cc:1720] Found device 0 with properties:\r\npciBusID: 0000:01:00.0 name: GeForce GTX 1050 Ti computeCapability: 6.1\r\ncoreClock: 1.62GHz coreCount: 6 deviceMemorySize: 4.00GiB deviceMemoryBandwidth: 104.43GiB/s\r\n2021-01-01 15:36:05.339857: I tensorflow/stream_executor/platform/default/dso_loader.cc:49] Successfully opened dynamic\r\nlibrary cudart64_110.dll\r\n2021-01-01 15:36:05.342356: I tensorflow/stream_executor/platform/default/dso_loader.cc:49] Successfully opened dynamic\r\nlibrary cublas64_11.dll\r\n2021-01-01 15:36:05.351041: I tensorflow/stream_executor/platform/default/dso_loader.cc:49] Successfully opened dynamic\r\nlibrary cublasLt64_11.dll\r\n2021-01-01 15:36:05.353842: I tensorflow/stream_executor/platform/default/dso_loader.cc:49] Successfully opened dynamic\r\nlibrary cufft64_10.dll\r\n2021-01-01 15:36:05.356236: I tensorflow/stream_executor/platform/default/dso_loader.cc:49] Successfully opened dynamic\r\nlibrary curand64_10.dll\r\n2021-01-01 15:36:05.358652: I tensorflow/stream_executor/platform/default/dso_loader.cc:49] Successfully opened dynamic\r\nlibrary cusolver64_10.dll\r\n2021-01-01 15:36:05.362098: I tensorflow/stream_executor/platform/default/dso_loader.cc:49] Successfully opened dynamic\r\nlibrary cusparse64_11.dll\r\n2021-01-01 15:36:05.370079: I tensorflow/stream_executor/platform/default/dso_loader.cc:49] Successfully opened dynamic\r\nlibrary cudnn64_8.dll\r\n2021-01-01 15:36:05.373200: I tensorflow/core/common_runtime/gpu/gpu_device.cc:1862] Adding visible gpu devices: 0\r\n2021-01-01 15:36:13.128203: I tensorflow/core/common_runtime/gpu/gpu_device.cc:1261] Device interconnect StreamExecutor\r\nwith strength 1 edge matrix:\r\n2021-01-01 15:36:13.131097: I tensorflow/core/common_runtime/gpu/gpu_device.cc:1267]      0\r\n2021-01-01 15:36:13.132404: I tensorflow/core/common_runtime/gpu/gpu_device.cc:1280] 0:   N\r\n2021-01-01 15:36:13.161953: I tensorflow/core/common_runtime/gpu/gpu_device.cc:1406] Created TensorFlow device (/job:loc\r\nalhost/replica:0/task:0/device:GPU:0 with 2982 MB memory) -> physical GPU (device: 0, name: GeForce GTX 1050 Ti, pci bus\r\n id: 0000:01:00.0, compute capability: 6.1)\r\n2021-01-01 15:36:13.202675: I tensorflow/compiler/jit/xla_gpu_device.cc:99] Not creating XLA devices, tf_xla_enable_xla_\r\ndevices not set\r\nWARNING:tensorflow:AutoGraph could not transform <bound method SSDModule.inference_fn of <tensorflow.python.eager.functi\r\non.TfMethodTarget object at 0x00000236A95C61C8>> and will run it as-is.\r\nPlease report this to the TensorFlow team. When filing the bug, set the verbosity to 10 (on Linux, `export AUTOGRAPH_VER\r\nBOSITY=10`) and attach the full output.\r\nCause: module 'gast' has no attribute 'Constant'\r\nTo silence this warning, decorate the function with @tf.autograph.experimental.do_not_convert\r\nW0101 15:36:14.384240 10772 ag_logging.py:146] AutoGraph could not transform <bound method SSDModule.inference_fn of <te\r\nnsorflow.python.eager.function.TfMethodTarget object at 0x00000236A95C61C8>> and will run it as-is.\r\nPlease report this to the TensorFlow team. When filing the bug, set the verbosity to 10 (on Linux, `export AUTOGRAPH_VER\r\nBOSITY=10`) and attach the full output.\r\nCause: module 'gast' has no attribute 'Constant'\r\nTo silence this warning, decorate the function with @tf.autograph.experimental.do_not_convert\r\nWARNING:tensorflow:AutoGraph could not transform <bound method FreezableBatchNorm.call of <object_detection.core.freezab\r\nle_batch_norm.FreezableBatchNorm object at 0x00000236B5ACB608>> and will run it as-is.\r\nPlease report this to the TensorFlow team. When filing the bug, set the verbosity to 10 (on Linux, `export AUTOGRAPH_VER\r\nBOSITY=10`) and attach the full output.\r\nCause: 'arguments' object has no attribute 'posonlyargs'\r\nTo silence this warning, decorate the function with @tf.autograph.experimental.do_not_convert\r\nW0101 15:36:14.768384 10772 ag_logging.py:146] AutoGraph could not transform <bound method FreezableBatchNorm.call of <o\r\nbject_detection.core.freezable_batch_norm.FreezableBatchNorm object at 0x00000236B5ACB608>> and will run it as-is.\r\nPlease report this to the TensorFlow team. When filing the bug, set the verbosity to 10 (on Linux, `export AUTOGRAPH_VER\r\nBOSITY=10`) and attach the full output.\r\nCause: 'arguments' object has no attribute 'posonlyargs'\r\nTo silence this warning, decorate the function with @tf.autograph.experimental.do_not_convert\r\nWARNING:tensorflow:AutoGraph could not transform <bound method SSDKerasFeatureExtractor.call of <object_detection.models\r\n.ssd_mobilenet_v2_keras_feature_extractor.SSDMobileNetV2KerasFeatureExtractor object at 0x00000236A2F5BE08>> and will ru\r\nn it as-is.\r\nPlease report this to the TensorFlow team. When filing the bug, set the verbosity to 10 (on Linux, `export AUTOGRAPH_VER\r\nBOSITY=10`) and attach the full output.\r\nCause: 'arguments' object has no attribute 'posonlyargs'\r\nTo silence this warning, decorate the function with @tf.autograph.experimental.do_not_convert\r\nW0101 15:36:16.034504 10772 ag_logging.py:146] AutoGraph could not transform <bound method SSDKerasFeatureExtractor.call\r\n of <object_detection.models.ssd_mobilenet_v2_keras_feature_extractor.SSDMobileNetV2KerasFeatureExtractor object at 0x00\r\n000236A2F5BE08>> and will run it as-is.\r\nPlease report this to the TensorFlow team. When filing the bug, set the verbosity to 10 (on Linux, `export AUTOGRAPH_VER\r\nBOSITY=10`) and attach the full output.\r\nCause: 'arguments' object has no attribute 'posonlyargs'\r\nTo silence this warning, decorate the function with @tf.autograph.experimental.do_not_convert\r\nWARNING:tensorflow:AutoGraph could not transform <bound method KerasMultiResolutionFeatureMaps.call of <object_detection\r\n.models.feature_map_generators.KerasMultiResolutionFeatureMaps object at 0x00000236C7AAA248>> and will run it as-is.\r\nPlease report this to the TensorFlow team. When filing the bug, set the verbosity to 10 (on Linux, `export AUTOGRAPH_VER\r\nBOSITY=10`) and attach the full output.\r\nCause: module 'gast' has no attribute 'Constant'\r\nTo silence this warning, decorate the function with @tf.autograph.experimental.do_not_convert\r\nW0101 15:36:16.354562 10772 ag_logging.py:146] AutoGraph could not transform <bound method KerasMultiResolutionFeatureMa\r\nps.call of <object_detection.models.feature_map_generators.KerasMultiResolutionFeatureMaps object at 0x00000236C7AAA248>\r\n> and will run it as-is.\r\nPlease report this to the TensorFlow team. When filing the bug, set the verbosity to 10 (on Linux, `export AUTOGRAPH_VER\r\nBOSITY=10`) and attach the full output.\r\nCause: module 'gast' has no attribute 'Constant'\r\nTo silence this warning, decorate the function with @tf.autograph.experimental.do_not_convert\r\nINFO:tensorflow:depth of additional conv before box predictor: 0\r\nI0101 15:36:17.339918 10772 convolutional_keras_box_predictor.py:154] depth of additional conv before box predictor: 0\r\nINFO:tensorflow:depth of additional conv before box predictor: 0\r\nI0101 15:36:17.342931 10772 convolutional_keras_box_predictor.py:154] depth of additional conv before box predictor: 0\r\nINFO:tensorflow:depth of additional conv before box predictor: 0\r\nI0101 15:36:17.347878 10772 convolutional_keras_box_predictor.py:154] depth of additional conv before box predictor: 0\r\nINFO:tensorflow:depth of additional conv before box predictor: 0\r\nI0101 15:36:17.350869 10772 convolutional_keras_box_predictor.py:154] depth of additional conv before box predictor: 0\r\nINFO:tensorflow:depth of additional conv before box predictor: 0\r\nI0101 15:36:17.357949 10772 convolutional_keras_box_predictor.py:154] depth of additional conv before box predictor: 0\r\nINFO:tensorflow:depth of additional conv before box predictor: 0\r\nI0101 15:36:17.358946 10772 convolutional_keras_box_predictor.py:154] depth of additional conv before box predictor: 0\r\nWARNING:tensorflow:AutoGraph could not transform <bound method KerasBoxPredictor.call of <object_detection.predictors.co\r\nnvolutional_keras_box_predictor.ConvolutionalBoxPredictor object at 0x00000236A9538508>> and will run it as-is.\r\nPlease report this to the TensorFlow team. When filing the bug, set the verbosity to 10 (on Linux, `export AUTOGRAPH_VER\r\nBOSITY=10`) and attach the full output.\r\nCause: 'arguments' object has no attribute 'posonlyargs'\r\nTo silence this warning, decorate the function with @tf.autograph.experimental.do_not_convert\r\nW0101 15:36:17.366203 10772 ag_logging.py:146] AutoGraph could not transform <bound method KerasBoxPredictor.call of <ob\r\nject_detection.predictors.convolutional_keras_box_predictor.ConvolutionalBoxPredictor object at 0x00000236A9538508>> and\r\n will run it as-is.\r\nPlease report this to the TensorFlow team. When filing the bug, set the verbosity to 10 (on Linux, `export AUTOGRAPH_VER\r\nBOSITY=10`) and attach the full output.\r\nCause: 'arguments' object has no attribute 'posonlyargs'\r\nTo silence this warning, decorate the function with @tf.autograph.experimental.do_not_convert\r\nWARNING:tensorflow:AutoGraph could not transform <bound method KerasHead.call of <object_detection.predictors.heads.kera\r\ns_box_head.ConvolutionalBoxHead object at 0x00000236A9165D48>> and will run it as-is.\r\nPlease report this to the TensorFlow team. When filing the bug, set the verbosity to 10 (on Linux, `export AUTOGRAPH_VER\r\nBOSITY=10`) and attach the full output.\r\nCause: 'arguments' object has no attribute 'posonlyargs'\r\nTo silence this warning, decorate the function with @tf.autograph.experimental.do_not_convert\r\nW0101 15:36:17.366203 10772 ag_logging.py:146] AutoGraph could not transform <bound method KerasHead.call of <object_det\r\nection.predictors.heads.keras_box_head.ConvolutionalBoxHead object at 0x00000236A9165D48>> and will run it as-is.\r\nPlease report this to the TensorFlow team. When filing the bug, set the verbosity to 10 (on Linux, `export AUTOGRAPH_VER\r\nBOSITY=10`) and attach the full output.\r\nCause: 'arguments' object has no attribute 'posonlyargs'\r\nTo silence this warning, decorate the function with @tf.autograph.experimental.do_not_convert\r\n2021-01-01 15:36:17.494573: I tensorflow/core/common_runtime/gpu/gpu_device.cc:1720] Found device 0 with properties:\r\npciBusID: 0000:01:00.0 name: GeForce GTX 1050 Ti computeCapability: 6.1\r\ncoreClock: 1.62GHz coreCount: 6 deviceMemorySize: 4.00GiB deviceMemoryBandwidth: 104.43GiB/s\r\n2021-01-01 15:36:17.501030: I tensorflow/stream_executor/platform/default/dso_loader.cc:49] Successfully opened dynamic\r\nlibrary cudart64_110.dll\r\n2021-01-01 15:36:17.507623: I tensorflow/stream_executor/platform/default/dso_loader.cc:49] Successfully opened dynamic\r\nlibrary cublas64_11.dll\r\n2021-01-01 15:36:17.513051: I tensorflow/stream_executor/platform/default/dso_loader.cc:49] Successfully opened dynamic\r\nlibrary cublasLt64_11.dll\r\n2021-01-01 15:36:17.516730: I tensorflow/stream_executor/platform/default/dso_loader.cc:49] Successfully opened dynamic\r\nlibrary cufft64_10.dll\r\n2021-01-01 15:36:17.519172: I tensorflow/stream_executor/platform/default/dso_loader.cc:49] Successfully opened dynamic\r\nlibrary curand64_10.dll\r\n2021-01-01 15:36:17.521521: I tensorflow/stream_executor/platform/default/dso_loader.cc:49] Successfully opened dynamic\r\nlibrary cusolver64_10.dll\r\n2021-01-01 15:36:17.523880: I tensorflow/stream_executor/platform/default/dso_loader.cc:49] Successfully opened dynamic\r\nlibrary cusparse64_11.dll\r\n2021-01-01 15:36:17.533205: I tensorflow/stream_executor/platform/default/dso_loader.cc:49] Successfully opened dynamic\r\nlibrary cudnn64_8.dll\r\n2021-01-01 15:36:17.536259: I tensorflow/core/common_runtime/gpu/gpu_device.cc:1862] Adding visible gpu devices: 0\r\n2021-01-01 15:36:17.537924: I tensorflow/core/common_runtime/gpu/gpu_device.cc:1261] Device interconnect StreamExecutor\r\nwith strength 1 edge matrix:\r\n2021-01-01 15:36:17.540286: I tensorflow/core/common_runtime/gpu/gpu_device.cc:1267]      0\r\n2021-01-01 15:36:17.541693: I tensorflow/core/common_runtime/gpu/gpu_device.cc:1280] 0:   N\r\n2021-01-01 15:36:17.543160: I tensorflow/core/common_runtime/gpu/gpu_device.cc:1406] Created TensorFlow device (/job:loc\r\nalhost/replica:0/task:0/device:GPU:0 with 2982 MB memory) -> physical GPU (device: 0, name: GeForce GTX 1050 Ti, pci bus\r\n id: 0000:01:00.0, compute capability: 6.1)\r\n2021-01-01 15:36:17.553303: I tensorflow/compiler/jit/xla_gpu_device.cc:99] Not creating XLA devices, tf_xla_enable_xla_\r\ndevices not set\r\n2021-01-01 15:36:17.618925: I tensorflow/compiler/mlir/mlir_graph_optimization_pass.cc:196] None of the MLIR optimizatio\r\nn passes are enabled (registered 0 passes)\r\nWARNING:tensorflow:AutoGraph could not transform <function SSDModule._get_postprocess_fn.<locals>.dummy_post_processing\r\nat 0x00000236C7D27798> and will run it as-is.\r\nPlease report this to the TensorFlow team. When filing the bug, set the verbosity to 10 (on Linux, `export AUTOGRAPH_VER\r\nBOSITY=10`) and attach the full output.\r\nCause: 'arguments' object has no attribute 'posonlyargs'\r\nTo silence this warning, decorate the function with @tf.autograph.experimental.do_not_convert\r\nW0101 15:36:19.335623 10772 ag_logging.py:146] AutoGraph could not transform <function SSDModule._get_postprocess_fn.<lo\r\ncals>.dummy_post_processing at 0x00000236C7D27798> and will run it as-is.\r\nPlease report this to the TensorFlow team. When filing the bug, set the verbosity to 10 (on Linux, `export AUTOGRAPH_VER\r\nBOSITY=10`) and attach the full output.\r\nCause: 'arguments' object has no attribute 'posonlyargs'\r\nTo silence this warning, decorate the function with @tf.autograph.experimental.do_not_convert\r\n2021-01-01 15:36:20.775396: I tensorflow/core/common_runtime/gpu/gpu_device.cc:1720] Found device 0 with properties:\r\npciBusID: 0000:01:00.0 name: GeForce GTX 1050 Ti computeCapability: 6.1\r\ncoreClock: 1.62GHz coreCount: 6 deviceMemorySize: 4.00GiB deviceMemoryBandwidth: 104.43GiB/s\r\n2021-01-01 15:36:20.780405: I tensorflow/stream_executor/platform/default/dso_loader.cc:49] Successfully opened dynamic\r\nlibrary cudart64_110.dll\r\n2021-01-01 15:36:20.783048: I tensorflow/stream_executor/platform/default/dso_loader.cc:49] Successfully opened dynamic\r\nlibrary cublas64_11.dll\r\n2021-01-01 15:36:20.785961: I tensorflow/stream_executor/platform/default/dso_loader.cc:49] Successfully opened dynamic\r\nlibrary cublasLt64_11.dll\r\n2021-01-01 15:36:20.788581: I tensorflow/stream_executor/platform/default/dso_loader.cc:49] Successfully opened dynamic\r\nlibrary cufft64_10.dll\r\n2021-01-01 15:36:20.790940: I tensorflow/stream_executor/platform/default/dso_loader.cc:49] Successfully opened dynamic\r\nlibrary curand64_10.dll\r\n2021-01-01 15:36:20.793317: I tensorflow/stream_executor/platform/default/dso_loader.cc:49] Successfully opened dynamic\r\nlibrary cusolver64_10.dll\r\n2021-01-01 15:36:20.795926: I tensorflow/stream_executor/platform/default/dso_loader.cc:49] Successfully opened dynamic\r\nlibrary cusparse64_11.dll\r\n2021-01-01 15:36:20.798359: I tensorflow/stream_executor/platform/default/dso_loader.cc:49] Successfully opened dynamic\r\nlibrary cudnn64_8.dll\r\n2021-01-01 15:36:20.801092: I tensorflow/core/common_runtime/gpu/gpu_device.cc:1862] Adding visible gpu devices: 0\r\n2021-01-01 15:36:20.802806: I tensorflow/core/common_runtime/gpu/gpu_device.cc:1261] Device interconnect StreamExecutor\r\nwith strength 1 edge matrix:\r\n2021-01-01 15:36:20.811645: I tensorflow/core/common_runtime/gpu/gpu_device.cc:1267]      0\r\n2021-01-01 15:36:20.814407: I tensorflow/core/common_runtime/gpu/gpu_device.cc:1280] 0:   N\r\n2021-01-01 15:36:20.816910: I tensorflow/core/common_runtime/gpu/gpu_device.cc:1406] Created TensorFlow device (/job:loc\r\nalhost/replica:0/task:0/device:GPU:0 with 2982 MB memory) -> physical GPU (device: 0, name: GeForce GTX 1050 Ti, pci bus\r\n id: 0000:01:00.0, compute capability: 6.1)\r\n2021-01-01 15:36:20.821653: I tensorflow/compiler/jit/xla_gpu_device.cc:99] Not creating XLA devices, tf_xla_enable_xla_\r\ndevices not set\r\nWARNING:tensorflow:AutoGraph could not transform <function SSDModule._get_postprocess_fn.<locals>.dummy_post_processing\r\nat 0x000002377C7D3EE8> and will run it as-is.\r\nPlease report this to the TensorFlow team. When filing the bug, set the verbosity to 10 (on Linux, `export AUTOGRAPH_VER\r\nBOSITY=10`) and attach the full output.\r\nCause: 'arguments' object has no attribute 'posonlyargs'\r\nTo silence this warning, decorate the function with @tf.autograph.experimental.do_not_convert\r\nW0101 15:36:20.924464 10772 ag_logging.py:146] AutoGraph could not transform <function SSDModule._get_postprocess_fn.<lo\r\ncals>.dummy_post_processing at 0x000002377C7D3EE8> and will run it as-is.\r\nPlease report this to the TensorFlow team. When filing the bug, set the verbosity to 10 (on Linux, `export AUTOGRAPH_VER\r\nBOSITY=10`) and attach the full output.\r\nCause: 'arguments' object has no attribute 'posonlyargs'\r\nTo silence this warning, decorate the function with @tf.autograph.experimental.do_not_convert\r\nWARNING:tensorflow:AutoGraph could not transform <function canonicalize_signatures.<locals>.signature_wrapper at 0x00000\r\n2377E245E58> and will run it as-is.\r\nPlease report this to the TensorFlow team. When filing the bug, set the verbosity to 10 (on Linux, `export AUTOGRAPH_VER\r\nBOSITY=10`) and attach the full output.\r\nCause: 'arguments' object has no attribute 'posonlyargs'\r\nTo silence this warning, decorate the function with @tf.autograph.experimental.do_not_convert\r\nW0101 15:36:21.259392 10772 ag_logging.py:146] AutoGraph could not transform <function canonicalize_signatures.<locals>.\r\nsignature_wrapper at 0x000002377E245E58> and will run it as-is.\r\nPlease report this to the TensorFlow team. When filing the bug, set the verbosity to 10 (on Linux, `export AUTOGRAPH_VER\r\nBOSITY=10`) and attach the full output.\r\nCause: 'arguments' object has no attribute 'posonlyargs'\r\nTo silence this warning, decorate the function with @tf.autograph.experimental.do_not_convert\r\nWARNING:tensorflow:Skipping full serialization of Keras layer <object_detection.meta_architectures.ssd_meta_arch.SSDMeta\r\nArch object at 0x00000236A956D4C8>, because it is not built.\r\nW0101 15:36:21.489312 10772 save_impl.py:78] Skipping full serialization of Keras layer <object_detection.meta_architect\r\nures.ssd_meta_arch.SSDMetaArch object at 0x00000236A956D4C8>, because it is not built.\r\n2021-01-01 15:36:33.415476: W tensorflow/python/util/util.cc:348] Sets are not currently considered sequences, but this\r\nmay change in the future, so consider avoiding using them.\r\n2021-01-01 15:36:56.497517: I tensorflow/core/common_runtime/gpu/gpu_device.cc:1720] Found device 0 with properties:\r\npciBusID: 0000:01:00.0 name: GeForce GTX 1050 Ti computeCapability: 6.1\r\ncoreClock: 1.62GHz coreCount: 6 deviceMemorySize: 4.00GiB deviceMemoryBandwidth: 104.43GiB/s\r\n2021-01-01 15:36:56.502998: I tensorflow/stream_executor/platform/default/dso_loader.cc:49] Successfully opened dynamic\r\nlibrary cudart64_110.dll\r\n2021-01-01 15:36:56.506094: I tensorflow/stream_executor/platform/default/dso_loader.cc:49] Successfully opened dynamic\r\nlibrary cublas64_11.dll\r\n2021-01-01 15:36:56.508562: I tensorflow/stream_executor/platform/default/dso_loader.cc:49] Successfully opened dynamic\r\nlibrary cublasLt64_11.dll\r\n2021-01-01 15:36:56.511047: I tensorflow/stream_executor/platform/default/dso_loader.cc:49] Successfully opened dynamic\r\nlibrary cufft64_10.dll\r\n2021-01-01 15:36:56.514148: I tensorflow/stream_executor/platform/default/dso_loader.cc:49] Successfully opened dynamic\r\nlibrary curand64_10.dll\r\n2021-01-01 15:36:56.522609: I tensorflow/stream_executor/platform/default/dso_loader.cc:49] Successfully opened dynamic\r\nlibrary cusolver64_10.dll\r\n2021-01-01 15:36:56.525053: I tensorflow/stream_executor/platform/default/dso_loader.cc:49] Successfully opened dynamic\r\nlibrary cusparse64_11.dll\r\n2021-01-01 15:36:56.527458: I tensorflow/stream_executor/platform/default/dso_loader.cc:49] Successfully opened dynamic\r\nlibrary cudnn64_8.dll\r\n2021-01-01 15:36:56.530278: I tensorflow/core/common_runtime/gpu/gpu_device.cc:1862] Adding visible gpu devices: 0\r\n2021-01-01 15:36:56.533155: I tensorflow/core/common_runtime/gpu/gpu_device.cc:1261] Device interconnect StreamExecutor\r\nwith strength 1 edge matrix:\r\n2021-01-01 15:36:56.541155: I tensorflow/core/common_runtime/gpu/gpu_device.cc:1267]      0\r\n2021-01-01 15:36:56.543258: I tensorflow/core/common_runtime/gpu/gpu_device.cc:1280] 0:   N\r\n2021-01-01 15:36:56.544827: I tensorflow/core/common_runtime/gpu/gpu_device.cc:1406] Created TensorFlow device (/job:loc\r\nalhost/replica:0/task:0/device:GPU:0 with 2982 MB memory) -> physical GPU (device: 0, name: GeForce GTX 1050 Ti, pci bus\r\n id: 0000:01:00.0, compute capability: 6.1)\r\n2021-01-01 15:36:56.550138: I tensorflow/compiler/jit/xla_gpu_device.cc:99] Not creating XLA devices, tf_xla_enable_xla_\r\ndevices not set\r\nWARNING:tensorflow:AutoGraph could not transform <function SSDModule._get_postprocess_fn.<locals>.dummy_post_processing\r\nat 0x0000023794F6BAF8> and will run it as-is.\r\nPlease report this to the TensorFlow team. When filing the bug, set the verbosity to 10 (on Linux, `export AUTOGRAPH_VER\r\nBOSITY=10`) and attach the full output.\r\nCause: 'arguments' object has no attribute 'posonlyargs'\r\nTo silence this warning, decorate the function with @tf.autograph.experimental.do_not_convert\r\nW0101 15:36:56.624512 10772 ag_logging.py:146] AutoGraph could not transform <function SSDModule._get_postprocess_fn.<lo\r\ncals>.dummy_post_processing at 0x0000023794F6BAF8> and will run it as-is.\r\nPlease report this to the TensorFlow team. When filing the bug, set the verbosity to 10 (on Linux, `export AUTOGRAPH_VER\r\nBOSITY=10`) and attach the full output.\r\nCause: 'arguments' object has no attribute 'posonlyargs'\r\nTo silence this warning, decorate the function with @tf.autograph.experimental.do_not_convert\r\nWARNING:tensorflow:AutoGraph could not transform <function Layer._handle_weight_regularization.<locals>._loss_for_variab\r\nle at 0x00000236B8372708> and will run it as-is.\r\nPlease report this to the TensorFlow team. When filing the bug, set the verbosity to 10 (on Linux, `export AUTOGRAPH_VER\r\nBOSITY=10`) and attach the full output.\r\nCause: 'arguments' object has no attribute 'posonlyargs'\r\nTo silence this warning, decorate the function with @tf.autograph.experimental.do_not_convert\r\nW0101 15:37:08.904431 10772 ag_logging.py:146] AutoGraph could not transform <function Layer._handle_weight_regularizati\r\non.<locals>._loss_for_variable at 0x00000236B8372708> and will run it as-is.\r\nPlease report this to the TensorFlow team. When filing the bug, set the verbosity to 10 (on Linux, `export AUTOGRAPH_VER\r\nBOSITY=10`) and attach the full output.\r\nCause: 'arguments' object has no attribute 'posonlyargs'\r\nTo silence this warning, decorate the function with @tf.autograph.experimental.do_not_convert\r\nWARNING:tensorflow:AutoGraph could not transform <function Layer._handle_weight_regularization.<locals>._loss_for_variab\r\nle at 0x00000236A2F54DC8> and will run it as-is.\r\nPlease report this to the TensorFlow team. When filing the bug, set the verbosity to 10 (on Linux, `export AUTOGRAPH_VER\r\nBOSITY=10`) and attach the full output.\r\nCause: 'arguments' object has no attribute 'posonlyargs'\r\nTo silence this warning, decorate the function with @tf.autograph.experimental.do_not_convert\r\nW0101 15:37:08.924087 10772 ag_logging.py:146] AutoGraph could not transform <function Layer._handle_weight_regularizati\r\non.<locals>._loss_for_variable at 0x00000236A2F54DC8> and will run it as-is.\r\nPlease report this to the TensorFlow team. When filing the bug, set the verbosity to 10 (on Linux, `export AUTOGRAPH_VER\r\nBOSITY=10`) and attach the full output.\r\nCause: 'arguments' object has no attribute 'posonlyargs'\r\nTo silence this warning, decorate the function with @tf.autograph.experimental.do_not_convert\r\nWARNING:tensorflow:AutoGraph could not transform <function Layer._handle_weight_regularization.<locals>._loss_for_variab\r\nle at 0x00000236B8372D38> and will run it as-is.\r\nPlease report this to the TensorFlow team. When filing the bug, set the verbosity to 10 (on Linux, `export AUTOGRAPH_VER\r\nBOSITY=10`) and attach the full output.\r\nCause: 'arguments' object has no attribute 'posonlyargs'\r\nTo silence this warning, decorate the function with @tf.autograph.experimental.do_not_convert\r\nW0101 15:37:08.934363 10772 ag_logging.py:146] AutoGraph could not transform <function Layer._handle_weight_regularizati\r\non.<locals>._loss_for_variable at 0x00000236B8372D38> and will run it as-is.\r\nPlease report this to the TensorFlow team. When filing the bug, set the verbosity to 10 (on Linux, `export AUTOGRAPH_VER\r\nBOSITY=10`) and attach the full output.\r\nCause: 'arguments' object has no attribute 'posonlyargs'\r\nTo silence this warning, decorate the function with @tf.autograph.experimental.do_not_convert\r\nWARNING:tensorflow:AutoGraph could not transform <function Layer._handle_weight_regularization.<locals>._loss_for_variab\r\nle at 0x00000236B83728B8> and will run it as-is.\r\nPlease report this to the TensorFlow team. When filing the bug, set the verbosity to 10 (on Linux, `export AUTOGRAPH_VER\r\nBOSITY=10`) and attach the full output.\r\nCause: 'arguments' object has no attribute 'posonlyargs'\r\nTo silence this warning, decorate the function with @tf.autograph.experimental.do_not_convert\r\nW0101 15:37:08.950443 10772 ag_logging.py:146] AutoGraph could not transform <function Layer._handle_weight_regularizati\r\non.<locals>._loss_for_variable at 0x00000236B83728B8> and will run it as-is.\r\nPlease report this to the TensorFlow team. When filing the bug, set the verbosity to 10 (on Linux, `export AUTOGRAPH_VER\r\nBOSITY=10`) and attach the full output.\r\nCause: 'arguments' object has no attribute 'posonlyargs'\r\nTo silence this warning, decorate the function with @tf.autograph.experimental.do_not_convert\r\nWARNING:tensorflow:AutoGraph could not transform <function Layer._handle_weight_regularization.<locals>._loss_for_variab\r\nle at 0x00000236BDC27048> and will run it as-is.\r\nPlease report this to the TensorFlow team. When filing the bug, set the verbosity to 10 (on Linux, `export AUTOGRAPH_VER\r\nBOSITY=10`) and attach the full output.\r\nCause: 'arguments' object has no attribute 'posonlyargs'\r\nTo silence this warning, decorate the function with @tf.autograph.experimental.do_not_convert\r\nW0101 15:37:08.964281 10772 ag_logging.py:146] AutoGraph could not transform <function Layer._handle_weight_regularizati\r\non.<locals>._loss_for_variable at 0x00000236BDC27048> and will run it as-is.\r\nPlease report this to the TensorFlow team. When filing the bug, set the verbosity to 10 (on Linux, `export AUTOGRAPH_VER\r\nBOSITY=10`) and attach the full output.\r\nCause: 'arguments' object has no attribute 'posonlyargs'\r\nTo silence this warning, decorate the function with @tf.autograph.experimental.do_not_convert\r\nWARNING:tensorflow:AutoGraph could not transform <function Layer._handle_weight_regularization.<locals>._loss_for_variab\r\nle at 0x00000236BDC27948> and will run it as-is.\r\nPlease report this to the TensorFlow team. When filing the bug, set the verbosity to 10 (on Linux, `export AUTOGRAPH_VER\r\nBOSITY=10`) and attach the full output.\r\nCause: 'arguments' object has no attribute 'posonlyargs'\r\nTo silence this warning, decorate the function with @tf.autograph.experimental.do_not_convert\r\nW0101 15:37:08.974267 10772 ag_logging.py:146] AutoGraph could not transform <function Layer._handle_weight_regularizati\r\non.<locals>._loss_for_variable at 0x00000236BDC27948> and will run it as-is.\r\nPlease report this to the TensorFlow team. When filing the bug, set the verbosity to 10 (on Linux, `export AUTOGRAPH_VER\r\nBOSITY=10`) and attach the full output.\r\nCause: 'arguments' object has no attribute 'posonlyargs'\r\nTo silence this warning, decorate the function with @tf.autograph.experimental.do_not_convert\r\nWARNING:tensorflow:AutoGraph could not transform <function Layer._handle_weight_regularization.<locals>._loss_for_variab\r\nle at 0x00000236BDC27C18> and will run it as-is.\r\nPlease report this to the TensorFlow team. When filing the bug, set the verbosity to 10 (on Linux, `export AUTOGRAPH_VER\r\nBOSITY=10`) and attach the full output.\r\nCause: 'arguments' object has no attribute 'posonlyargs'\r\nTo silence this warning, decorate the function with @tf.autograph.experimental.do_not_convert\r\nW0101 15:37:08.989209 10772 ag_logging.py:146] AutoGraph could not transform <function Layer._handle_weight_regularizati\r\non.<locals>._loss_for_variable at 0x00000236BDC27C18> and will run it as-is.\r\nPlease report this to the TensorFlow team. When filing the bug, set the verbosity to 10 (on Linux, `export AUTOGRAPH_VER\r\nBOSITY=10`) and attach the full output.\r\nCause: 'arguments' object has no attribute 'posonlyargs'\r\nTo silence this warning, decorate the function with @tf.autograph.experimental.do_not_convert\r\nWARNING:tensorflow:AutoGraph could not transform <function Layer._handle_weight_regularization.<locals>._loss_for_variab\r\nle at 0x00000236BDC891F8> and will run it as-is.\r\nPlease report this to the TensorFlow team. When filing the bug, set the verbosity to 10 (on Linux, `export AUTOGRAPH_VER\r\nBOSITY=10`) and attach the full output.\r\nCause: 'arguments' object has no attribute 'posonlyargs'\r\nTo silence this warning, decorate the function with @tf.autograph.experimental.do_not_convert\r\nW0101 15:37:09.003207 10772 ag_logging.py:146] AutoGraph could not transform <function Layer._handle_weight_regularizati\r\non.<locals>._loss_for_variable at 0x00000236BDC891F8> and will run it as-is.\r\nPlease report this to the TensorFlow team. When filing the bug, set the verbosity to 10 (on Linux, `export AUTOGRAPH_VER\r\nBOSITY=10`) and attach the full output.\r\nCause: 'arguments' object has no attribute 'posonlyargs'\r\nTo silence this warning, decorate the function with @tf.autograph.experimental.do_not_convert\r\nWARNING:tensorflow:AutoGraph could not transform <function Layer._handle_weight_regularization.<locals>._loss_for_variab\r\nle at 0x00000236BDC27798> and will run it as-is.\r\nPlease report this to the TensorFlow team. When filing the bug, set the verbosity to 10 (on Linux, `export AUTOGRAPH_VER\r\nBOSITY=10`) and attach the full output.\r\nCause: 'arguments' object has no attribute 'posonlyargs'\r\nTo silence this warning, decorate the function with @tf.autograph.experimental.do_not_convert\r\nW0101 15:37:09.014103 10772 ag_logging.py:146] AutoGraph could not transform <function Layer._handle_weight_regularizati\r\non.<locals>._loss_for_variable at 0x00000236BDC27798> and will run it as-is.\r\nPlease report this to the TensorFlow team. When filing the bug, set the verbosity to 10 (on Linux, `export AUTOGRAPH_VER\r\nBOSITY=10`) and attach the full output.\r\nCause: 'arguments' object has no attribute 'posonlyargs'\r\nTo silence this warning, decorate the function with @tf.autograph.experimental.do_not_convert\r\nWARNING:tensorflow:AutoGraph could not transform <function Layer._handle_weight_regularization.<locals>._loss_for_variab\r\nle at 0x00000236BDC27168> and will run it as-is.\r\nPlease report this to the TensorFlow team. When filing the bug, set the verbosity to 10 (on Linux, `export AUTOGRAPH_VER\r\nBOSITY=10`) and attach the full output.\r\nCause: 'arguments' object has no attribute 'posonlyargs'\r\nTo silence this warning, decorate the function with @tf.autograph.experimental.do_not_convert\r\nW0101 15:37:09.024310 10772 ag_logging.py:146] AutoGraph could not transform <function Layer._handle_weight_regularizati\r\non.<locals>._loss_for_variable at 0x00000236BDC27168> and will run it as-is.\r\nPlease report this to the TensorFlow team. When filing the bug, set the verbosity to 10 (on Linux, `export AUTOGRAPH_VER\r\nBOSITY=10`) and attach the full output.\r\nCause: 'arguments' object has no attribute 'posonlyargs'\r\nTo silence this warning, decorate the function with @tf.autograph.experimental.do_not_convert\r\nWARNING:tensorflow:AutoGraph could not transform <function Layer._handle_weight_regularization.<locals>._loss_for_variab\r\nle at 0x00000236B8372C18> and will run it as-is.\r\nPlease report this to the TensorFlow team. When filing the bug, set the verbosity to 10 (on Linux, `export AUTOGRAPH_VER\r\nBOSITY=10`) and attach the full output.\r\nCause: 'arguments' object has no attribute 'posonlyargs'\r\nTo silence this warning, decorate the function with @tf.autograph.experimental.do_not_convert\r\nW0101 15:37:09.039472 10772 ag_logging.py:146] AutoGraph could not transform <function Layer._handle_weight_regularizati\r\non.<locals>._loss_for_variable at 0x00000236B8372C18> and will run it as-is.\r\nPlease report this to the TensorFlow team. When filing the bug, set the verbosity to 10 (on Linux, `export AUTOGRAPH_VER\r\nBOSITY=10`) and attach the full output.\r\nCause: 'arguments' object has no attribute 'posonlyargs'\r\nTo silence this warning, decorate the function with @tf.autograph.experimental.do_not_convert\r\nWARNING:tensorflow:AutoGraph could not transform <function Layer._handle_weight_regularization.<locals>._loss_for_variab\r\nle at 0x00000236A2D0B4C8> and will run it as-is.\r\nPlease report this to the TensorFlow team. When filing the bug, set the verbosity to 10 (on Linux, `export AUTOGRAPH_VER\r\nBOSITY=10`) and attach the full output.\r\nCause: 'arguments' object has no attribute 'posonlyargs'\r\nTo silence this warning, decorate the function with @tf.autograph.experimental.do_not_convert\r\nW0101 15:37:09.054223 10772 ag_logging.py:146] AutoGraph could not transform <function Layer._handle_weight_regularizati\r\non.<locals>._loss_for_variable at 0x00000236A2D0B4C8> and will run it as-is.\r\nPlease report this to the TensorFlow team. When filing the bug, set the verbosity to 10 (on Linux, `export AUTOGRAPH_VER\r\nBOSITY=10`) and attach the full output.\r\nCause: 'arguments' object has no attribute 'posonlyargs'\r\nTo silence this warning, decorate the function with @tf.autograph.experimental.do_not_convert\r\nWARNING:tensorflow:AutoGraph could not transform <function Layer._handle_weight_regularization.<locals>._loss_for_variab\r\nle at 0x00000236A2D04F78> and will run it as-is.\r\nPlease report this to the TensorFlow team. When filing the bug, set the verbosity to 10 (on Linux, `export AUTOGRAPH_VER\r\nBOSITY=10`) and attach the full output.\r\nCause: 'arguments' object has no attribute 'posonlyargs'\r\nTo silence this warning, decorate the function with @tf.autograph.experimental.do_not_convert\r\nW0101 15:37:09.064049 10772 ag_logging.py:146] AutoGraph could not transform <function Layer._handle_weight_regularizati\r\non.<locals>._loss_for_variable at 0x00000236A2D04F78> and will run it as-is.\r\nPlease report this to the TensorFlow team. When filing the bug, set the verbosity to 10 (on Linux, `export AUTOGRAPH_VER\r\nBOSITY=10`) and attach the full output.\r\nCause: 'arguments' object has no attribute 'posonlyargs'\r\nTo silence this warning, decorate the function with @tf.autograph.experimental.do_not_convert\r\nWARNING:tensorflow:AutoGraph could not transform <function Layer._handle_weight_regularization.<locals>._loss_for_variab\r\nle at 0x00000236BDC89A68> and will run it as-is.\r\nPlease report this to the TensorFlow team. When filing the bug, set the verbosity to 10 (on Linux, `export AUTOGRAPH_VER\r\nBOSITY=10`) and attach the full output.\r\nCause: 'arguments' object has no attribute 'posonlyargs'\r\nTo silence this warning, decorate the function with @tf.autograph.experimental.do_not_convert\r\nW0101 15:37:09.080380 10772 ag_logging.py:146] AutoGraph could not transform <function Layer._handle_weight_regularizati\r\non.<locals>._loss_for_variable at 0x00000236BDC89A68> and will run it as-is.\r\nPlease report this to the TensorFlow team. When filing the bug, set the verbosity to 10 (on Linux, `export AUTOGRAPH_VER\r\nBOSITY=10`) and attach the full output.\r\nCause: 'arguments' object has no attribute 'posonlyargs'\r\nTo silence this warning, decorate the function with @tf.autograph.experimental.do_not_convert\r\nWARNING:tensorflow:AutoGraph could not transform <function Layer._handle_weight_regularization.<locals>._loss_for_variab\r\nle at 0x00000236BDC89438> and will run it as-is.\r\nPlease report this to the TensorFlow team. When filing the bug, set the verbosity to 10 (on Linux, `export AUTOGRAPH_VER\r\nBOSITY=10`) and attach the full output.\r\nCause: 'arguments' object has no attribute 'posonlyargs'\r\nTo silence this warning, decorate the function with @tf.autograph.experimental.do_not_convert\r\nW0101 15:37:09.094172 10772 ag_logging.py:146] AutoGraph could not transform <function Layer._handle_weight_regularizati\r\non.<locals>._loss_for_variable at 0x00000236BDC89438> and will run it as-is.\r\nPlease report this to the TensorFlow team. When filing the bug, set the verbosity to 10 (on Linux, `export AUTOGRAPH_VER\r\nBOSITY=10`) and attach the full output.\r\nCause: 'arguments' object has no attribute 'posonlyargs'\r\nTo silence this warning, decorate the function with @tf.autograph.experimental.do_not_convert\r\nWARNING:tensorflow:AutoGraph could not transform <function Layer._handle_weight_regularization.<locals>._loss_for_variab\r\nle at 0x00000236C0D98318> and will run it as-is.\r\nPlease report this to the TensorFlow team. When filing the bug, set the verbosity to 10 (on Linux, `export AUTOGRAPH_VER\r\nBOSITY=10`) and attach the full output.\r\nCause: 'arguments' object has no attribute 'posonlyargs'\r\nTo silence this warning, decorate the function with @tf.autograph.experimental.do_not_convert\r\nW0101 15:37:09.104253 10772 ag_logging.py:146] AutoGraph could not transform <function Layer._handle_weight_regularizati\r\non.<locals>._loss_for_variable at 0x00000236C0D98318> and will run it as-is.\r\nPlease report this to the TensorFlow team. When filing the bug, set the verbosity to 10 (on Linux, `export AUTOGRAPH_VER\r\nBOSITY=10`) and attach the full output.\r\nCause: 'arguments' object has no attribute 'posonlyargs'\r\nTo silence this warning, decorate the function with @tf.autograph.experimental.do_not_convert\r\nWARNING:tensorflow:AutoGraph could not transform <function Layer._handle_weight_regularization.<locals>._loss_for_variab\r\nle at 0x00000236BDC89F78> and will run it as-is.\r\nPlease report this to the TensorFlow team. When filing the bug, set the verbosity to 10 (on Linux, `export AUTOGRAPH_VER\r\nBOSITY=10`) and attach the full output.\r\nCause: 'arguments' object has no attribute 'posonlyargs'\r\nTo silence this warning, decorate the function with @tf.autograph.experimental.do_not_convert\r\nW0101 15:37:09.119428 10772 ag_logging.py:146] AutoGraph could not transform <function Layer._handle_weight_regularizati\r\non.<locals>._loss_for_variable at 0x00000236BDC89F78> and will run it as-is.\r\nPlease report this to the TensorFlow team. When filing the bug, set the verbosity to 10 (on Linux, `export AUTOGRAPH_VER\r\nBOSITY=10`) and attach the full output.\r\nCause: 'arguments' object has no attribute 'posonlyargs'\r\nTo silence this warning, decorate the function with @tf.autograph.experimental.do_not_convert\r\nWARNING:tensorflow:AutoGraph could not transform <function Layer._handle_weight_regularization.<locals>._loss_for_variab\r\nle at 0x00000236BDC89708> and will run it as-is.\r\nPlease report this to the TensorFlow team. When filing the bug, set the verbosity to 10 (on Linux, `export AUTOGRAPH_VER\r\nBOSITY=10`) and attach the full output.\r\nCause: 'arguments' object has no attribute 'posonlyargs'\r\nTo silence this warning, decorate the function with @tf.autograph.experimental.do_not_convert\r\nW0101 15:37:09.129079 10772 ag_logging.py:146] AutoGraph could not transform <function Layer._handle_weight_regularizati\r\non.<locals>._loss_for_variable at 0x00000236BDC89708> and will run it as-is.\r\nPlease report this to the TensorFlow team. When filing the bug, set the verbosity to 10 (on Linux, `export AUTOGRAPH_VER\r\nBOSITY=10`) and attach the full output.\r\nCause: 'arguments' object has no attribute 'posonlyargs'\r\nTo silence this warning, decorate the function with @tf.autograph.experimental.do_not_convert\r\nWARNING:tensorflow:AutoGraph could not transform <function Layer._handle_weight_regularization.<locals>._loss_for_variab\r\nle at 0x00000236BDC27EE8> and will run it as-is.\r\nPlease report this to the TensorFlow team. When filing the bug, set the verbosity to 10 (on Linux, `export AUTOGRAPH_VER\r\nBOSITY=10`) and attach the full output.\r\nCause: 'arguments' object has no attribute 'posonlyargs'\r\nTo silence this warning, decorate the function with @tf.autograph.experimental.do_not_convert\r\nW0101 15:37:09.139221 10772 ag_logging.py:146] AutoGraph could not transform <function Layer._handle_weight_regularizati\r\non.<locals>._loss_for_variable at 0x00000236BDC27EE8> and will run it as-is.\r\nPlease report this to the TensorFlow team. When filing the bug, set the verbosity to 10 (on Linux, `export AUTOGRAPH_VER\r\nBOSITY=10`) and attach the full output.\r\nCause: 'arguments' object has no attribute 'posonlyargs'\r\nTo silence this warning, decorate the function with @tf.autograph.experimental.do_not_convert\r\nWARNING:tensorflow:AutoGraph could not transform <function Layer._handle_weight_regularization.<locals>._loss_for_variab\r\nle at 0x00000236BDC273A8> and will run it as-is.\r\nPlease report this to the TensorFlow team. When filing the bug, set the verbosity to 10 (on Linux, `export AUTOGRAPH_VER\r\nBOSITY=10`) and attach the full output.\r\nCause: 'arguments' object has no attribute 'posonlyargs'\r\nTo silence this warning, decorate the function with @tf.autograph.experimental.do_not_convert\r\nW0101 15:37:09.154466 10772 ag_logging.py:146] AutoGraph could not transform <function Layer._handle_weight_regularizati\r\non.<locals>._loss_for_variable at 0x00000236BDC273A8> and will run it as-is.\r\nPlease report this to the TensorFlow team. When filing the bug, set the verbosity to 10 (on Linux, `export AUTOGRAPH_VER\r\nBOSITY=10`) and attach the full output.\r\nCause: 'arguments' object has no attribute 'posonlyargs'\r\nTo silence this warning, decorate the function with @tf.autograph.experimental.do_not_convert\r\nWARNING:tensorflow:AutoGraph could not transform <function Layer._handle_weight_regularization.<locals>._loss_for_variab\r\nle at 0x00000236C0D984C8> and will run it as-is.\r\nPlease report this to the TensorFlow team. When filing the bug, set the verbosity to 10 (on Linux, `export AUTOGRAPH_VER\r\nBOSITY=10`) and attach the full output.\r\nCause: 'arguments' object has no attribute 'posonlyargs'\r\nTo silence this warning, decorate the function with @tf.autograph.experimental.do_not_convert\r\nW0101 15:37:09.164408 10772 ag_logging.py:146] AutoGraph could not transform <function Layer._handle_weight_regularizati\r\non.<locals>._loss_for_variable at 0x00000236C0D984C8> and will run it as-is.\r\nPlease report this to the TensorFlow team. When filing the bug, set the verbosity to 10 (on Linux, `export AUTOGRAPH_VER\r\nBOSITY=10`) and attach the full output.\r\nCause: 'arguments' object has no attribute 'posonlyargs'\r\nTo silence this warning, decorate the function with @tf.autograph.experimental.do_not_convert\r\nWARNING:tensorflow:AutoGraph could not transform <function Layer._handle_weight_regularization.<locals>._loss_for_variab\r\nle at 0x00000236C0D988B8> and will run it as-is.\r\nPlease report this to the TensorFlow team. When filing the bug, set the verbosity to 10 (on Linux, `export AUTOGRAPH_VER\r\nBOSITY=10`) and attach the full output.\r\nCause: 'arguments' object has no attribute 'posonlyargs'\r\nTo silence this warning, decorate the function with @tf.autograph.experimental.do_not_convert\r\nW0101 15:37:09.178624 10772 ag_logging.py:146] AutoGraph could not transform <function Layer._handle_weight_regularizati\r\non.<locals>._loss_for_variable at 0x00000236C0D988B8> and will run it as-is.\r\nPlease report this to the TensorFlow team. When filing the bug, set the verbosity to 10 (on Linux, `export AUTOGRAPH_VER\r\nBOSITY=10`) and attach the full output.\r\nCause: 'arguments' object has no attribute 'posonlyargs'\r\nTo silence this warning, decorate the function with @tf.autograph.experimental.do_not_convert\r\nWARNING:tensorflow:AutoGraph could not transform <function Layer._handle_weight_regularization.<locals>._loss_for_variab\r\nle at 0x00000236C0D98D38> and will run it as-is.\r\nPlease report this to the TensorFlow team. When filing the bug, set the verbosity to 10 (on Linux, `export AUTOGRAPH_VER\r\nBOSITY=10`) and attach the full output.\r\nCause: 'arguments' object has no attribute 'posonlyargs'\r\nTo silence this warning, decorate the function with @tf.autograph.experimental.do_not_convert\r\nW0101 15:37:09.193627 10772 ag_logging.py:146] AutoGraph could not transform <function Layer._handle_weight_regularizati\r\non.<locals>._loss_for_variable at 0x00000236C0D98D38> and will run it as-is.\r\nPlease report this to the TensorFlow team. When filing the bug, set the verbosity to 10 (on Linux, `export AUTOGRAPH_VER\r\nBOSITY=10`) and attach the full output.\r\nCause: 'arguments' object has no attribute 'posonlyargs'\r\nTo silence this warning, decorate the function with @tf.autograph.experimental.do_not_convert\r\nWARNING:tensorflow:AutoGraph could not transform <function Layer._handle_weight_regularization.<locals>._loss_for_variab\r\nle at 0x00000236C277D0D8> and will run it as-is.\r\nPlease report this to the TensorFlow team. When filing the bug, set the verbosity to 10 (on Linux, `export AUTOGRAPH_VER\r\nBOSITY=10`) and attach the full output.\r\nCause: 'arguments' object has no attribute 'posonlyargs'\r\nTo silence this warning, decorate the function with @tf.autograph.experimental.do_not_convert\r\nW0101 15:37:09.206599 10772 ag_logging.py:146] AutoGraph could not transform <function Layer._handle_weight_regularizati\r\non.<locals>._loss_for_variable at 0x00000236C277D0D8> and will run it as-is.\r\nPlease report this to the TensorFlow team. When filing the bug, set the verbosity to 10 (on Linux, `export AUTOGRAPH_VER\r\nBOSITY=10`) and attach the full output.\r\nCause: 'arguments' object has no attribute 'posonlyargs'\r\nTo silence this warning, decorate the function with @tf.autograph.experimental.do_not_convert\r\nWARNING:tensorflow:AutoGraph could not transform <function Laye…
        "subscriptions_url": "https://api.github.com/users/ymodak/subscriptions",
        "organizations_url": "https://api.github.com/users/ymodak/orgs",
        "repos_url": "https://api.github.com/users/ymodak/repos",
        "events_url": "https://api.github.com/users/ymodak/events{/privacy}",
        "received_events_url": "https://api.github.com/users/ymodak/received_events",
        "type": "User",
        "site_admin": false
      },
      "assignees": [
        {
          "login": "ymodak",
          "id": 42785357,
          "node_id": "MDQ6VXNlcjQyNzg1MzU3",
          "avatar_url": "https://avatars.githubusercontent.com/u/42785357?v=4",
          "gravatar_id": "",
          "url": "https://api.github.com/users/ymodak",
          "html_url": "https://github.com/ymodak",
          "followers_url": "https://api.github.com/users/ymodak/followers",
          "following_url": "https://api.github.com/users/ymodak/following{/other_user}",
          "gists_url": "https://api.github.com/users/ymodak/gists{/gist_id}",
          "starred_url": "https://api.github.com/users/ymodak/starred{/owner}{/repo}",
          "subscriptions_url": "https://api.github.com/users/ymodak/subscriptions",
          "organizations_url": "https://api.github.com/users/ymodak/orgs",
          "repos_url": "https://api.github.com/users/ymodak/repos",
          "events_url": "https://api.github.com/users/ymodak/events{/privacy}",
          "received_events_url": "https://api.github.com/users/ymodak/received_events",
          "type": "User",
          "site_admin": false
        }
      ],
      "milestone": null,
      "comments": 4,
      "created_at": "2020-08-29T07:58:06Z",
      "updated_at": "2020-09-03T04:03:41Z",
      "closed_at": "2020-09-03T04:03:40Z",
      "author_association": "NONE",
      "active_lock_reason": null,
      "body": "@tensorflow/micro\r\n\r\n**System information**\r\n- Host OS Platform and Distribution (e.g., Linux Ubuntu 16.04): Windows 10, Ubuntu on WSL - 20.04.1\r\n- TensorFlow installed from (source or binary): -\r\n- Tensorflow version (commit SHA if source): -\r\n- Target platform (e.g. Arm Mbed OS, Arduino Nano 33 etc.): Arduino Nano, Arduino Portenta H7\r\n\r\n**Describe the problem**\r\nI've been doing the exercises from the TinyML book and on page 84 it covers the step to use 'make' to run tests on the code. I'm using windows 10 and I did not have make or git installed on it so I went and installed Git 2.28.0 from their website and intalled make 4.3 through Chocolatey. \r\nAfter running the command from page 84 : \"make -f tensorflow/lite/micro/tools/make/Makefile test_hello_world_test\" I get the following message: \r\n\r\nC:\\Users\\zalan\\tensorflow>make -f tensorflow/lite/micro/tools/make/Makefile test_hello_world_test\r\nprocess_begin: CreateProcess(NULL, uname -m, …) failed.\r\ntensorflow/lite/micro/tools/make/Makefile:32: pipe: No error\r\n-m was unexpected at this time.\r\nFIND: Parameter format not correct\r\nmake: *** No rule to make target ‘test_hello_world_test’. Stop.\r\n\r\nAs I couldn't figure out what the problem was I went online and saw that somone experienced the same problem and downloaded Ubuntu on WSL on windows and managed to run make.\r\nI've tried the same, downloaded the latest version and installed make and when I ran the code I got the following error:\r\n\r\nzal_n@LAPTOP-74R8EDS8:/mnt/c/users/zalan/tensorflow$ make -f tensorflow/lite/micro/tools/make/Makefile test_hello_world_test\r\ntensorflow/lite/micro/tools/make/Makefile:306: warning: overriding recipe for target ‘tensorflow/lite/micro/tools/make/downloads/ruy’\r\ntensorflow/lite/micro/tools/make/Makefile:306: warning: ignoring old recipe for target ‘tensorflow/lite/micro/tools/make/downloads/ruy’\r\ntensorflow/lite/micro/tools/make/Makefile:306: warning: overriding recipe for target ‘tensorflow/lite/micro/tools/make/downloads/person_model_grayscale’\r\ntensorflow/lite/micro/tools/make/Makefile:306: warning: ignoring old recipe for target ‘tensorflow/lite/micro/tools/make/downloads/person_model_grayscale’\r\ntensorflow/lite/micro/tools/make/Makefile:306: warning: overriding recipe for target ‘tensorflow/lite/micro/tools/make/downloads/person_model_int8’\r\ntensorflow/lite/micro/tools/make/Makefile:306: warning: ignoring old recipe for target ‘tensorflow/lite/micro/tools/make/downloads/person_model_int8’\r\ntensorflow/lite/micro/tools/make/download_and_extract.sh “https://github.com/google/gemmlowp/archive/719139ce755a0f31cbf1c37f7f98adcc7fc9f425.zip” “7e8191b24853d75de2af87622ad293ba” tensorflow/lite/micro/tools/make/downloads/gemmlowp\r\ntensorflow/lite/micro/tools/make/download_and_extract.sh: line 16: '\\r': command not found tensorflow/lite/micro/tools/make/download_and_extract.sh: line 24: ‘\\r’: command not found\r\n: invalid optionmicro/tools/make/download_and_extract.sh: line 25: set: -\r\nset: usage: set [-abefhkmnptuvxBCHP] [-o option-name] [–] [arg …]\r\ntensorflow/lite/micro/tools/make/download_and_extract.sh: line 26: '\\r': command not found tensorflow/lite/micro/tools/make/download_and_extract.sh: line 28: syntax error near unexpected token `‘{\\r’’\r\n'ensorflow/lite/micro/tools/make/download_and_extract.sh: line 28: `patch_am_sdk() {\r\nmake: *** [tensorflow/lite/micro/tools/make/Makefile:306: tensorflow/lite/micro/tools/make/downloads/gemmlowp] Error 2\r\n\r\nI'm not sure what to do at this point so any help would be appreciated. \r\n\r\n\r\n",
      "reactions": {
        "url": "https://api.github.com/repos/tensorflow/tensorflow/issues/42765/reactions",
        "total_count": 0,
        "+1": 0,
        "-1": 0,
        "laugh": 0,
        "hooray": 0,
        "confused": 0,
        "heart": 0,
        "rocket": 0,
        "eyes": 0
      },
      "timeline_url": "https://api.github.com/repos/tensorflow/tensorflow/issues/42765/timeline",
      "performed_via_github_app": null,
      "score": 1.0
    },
    {
      "url": "https://api.github.com/repos/tensorflow/tensorflow/issues/42735",
      "repository_url": "https://api.github.com/repos/tensorflow/tensorflow",
      "labels_url": "https://api.github.com/repos/tensorflow/tensorflow/issues/42735/labels{/name}",
      "comments_url": "https://api.github.com/repos/tensorflow/tensorflow/issues/42735/comments",
      "events_url": "https://api.github.com/repos/tensorflow/tensorflow/issues/42735/events",
      "html_url": "https://github.com/tensorflow/tensorflow/issues/42735",
      "id": 688038346,
      "node_id": "MDU6SXNzdWU2ODgwMzgzNDY=",
      "number": 42735,
      "title": "Android - Drawback of Fixing Error (Regular TensorFlow ops) is increasing the app size to 195MB! ",
      "user": {
        "login": "hahmad2008",
        "id": 68266028,
        "node_id": "MDQ6VXNlcjY4MjY2MDI4",
        "avatar_url": "https://avatars.githubusercontent.com/u/68266028?v=4",
        "gravatar_id": "",
        "url": "https://api.github.com/users/hahmad2008",
        "html_url": "https://github.com/hahmad2008",
        "followers_url": "https://api.github.com/users/hahmad2008/followers",
        "following_url": "https://api.github.com/users/hahmad2008/following{/other_user}",
        "gists_url": "https://api.github.com/users/hahmad2008/gists{/gist_id}",
        "starred_url": "https://api.github.com/users/hahmad2008/starred{/owner}{/repo}",
        "subscriptions_url": "https://api.github.com/users/hahmad2008/subscriptions",
        "organizations_url": "https://api.github.com/users/hahmad2008/orgs",
        "repos_url": "https://api.github.com/users/hahmad2008/repos",
        "events_url": "https://api.github.com/users/hahmad2008/events{/privacy}",
        "received_events_url": "https://api.github.com/users/hahmad2008/received_events",
        "type": "User",
        "site_admin": false
      },
      "labels": [
        {
          "id": 473184161,
          "node_id": "MDU6TGFiZWw0NzMxODQxNjE=",
          "url": "https://api.github.com/repos/tensorflow/tensorflow/labels/type:support",
          "name": "type:support",
          "color": "159b2e",
          "default": false,
          "description": "Support issues"
        },
        {
          "id": 750616506,
          "node_id": "MDU6TGFiZWw3NTA2MTY1MDY=",
          "url": "https://api.github.com/repos/tensorflow/tensorflow/labels/comp:lite",
          "name": "comp:lite",
          "color": "0052cc",
          "default": false,
          "description": "TF Lite related issues"
        }
      ],
      "state": "closed",
      "locked": false,
      "assignee": {
        "login": "srjoglekar246",
        "id": 2099293,
        "node_id": "MDQ6VXNlcjIwOTkyOTM=",
        "avatar_url": "https://avatars.githubusercontent.com/u/2099293?v=4",
        "gravatar_id": "",
        "url": "https://api.github.com/users/srjoglekar246",
        "html_url": "https://github.com/srjoglekar246",
        "followers_url": "https://api.github.com/users/srjoglekar246/followers",
        "following_url": "https://api.github.com/users/srjoglekar246/following{/other_user}",
        "gists_url": "https://api.github.com/users/srjoglekar246/gists{/gist_id}",
        "starred_url": "https://api.github.com/users/srjoglekar246/starred{/owner}{/repo}",
        "subscriptions_url": "https://api.github.com/users/srjoglekar246/subscriptions",
        "organizations_url": "https://api.github.com/users/srjoglekar246/orgs",
        "repos_url": "https://api.github.com/users/srjoglekar246/repos",
        "events_url": "https://api.github.com/users/srjoglekar246/events{/privacy}",
        "received_events_url": "https://api.github.com/users/srjoglekar246/received_events",
        "type": "User",
        "site_admin": false
      },
      "assignees": [
        {
          "login": "srjoglekar246",
          "id": 2099293,
          "node_id": "MDQ6VXNlcjIwOTkyOTM=",
          "avatar_url": "https://avatars.githubusercontent.com/u/2099293?v=4",
          "gravatar_id": "",
          "url": "https://api.github.com/users/srjoglekar246",
          "html_url": "https://github.com/srjoglekar246",
          "followers_url": "https://api.github.com/users/srjoglekar246/followers",
          "following_url": "https://api.github.com/users/srjoglekar246/following{/other_user}",
          "gists_url": "https://api.github.com/users/srjoglekar246/gists{/gist_id}",
          "starred_url": "https://api.github.com/users/srjoglekar246/starred{/owner}{/repo}",
          "subscriptions_url": "https://api.github.com/users/srjoglekar246/subscriptions",
          "organizations_url": "https://api.github.com/users/srjoglekar246/orgs",
          "repos_url": "https://api.github.com/users/srjoglekar246/repos",
          "events_url": "https://api.github.com/users/srjoglekar246/events{/privacy}",
          "received_events_url": "https://api.github.com/users/srjoglekar246/received_events",
          "type": "User",
          "site_admin": false
        }
      ],
      "milestone": null,
      "comments": 13,
      "created_at": "2020-08-28T12:25:30Z",
      "updated_at": "2020-09-11T16:07:59Z",
      "closed_at": "2020-09-11T11:57:39Z",
      "author_association": "NONE",
      "active_lock_reason": null,
      "body": "### Object detection Android TF LITE EXAMPLE\r\nI am running the example of [object detection Android version](https://github.com/tensorflow/examples/tree/master/lite/examples/object_detection/android), which need about 14MB storage on the physical phone.\r\n\r\n\r\n### My trained Object detection Android TF LITE\r\nHowever, when I used my object detection trained model, (which is [converted to TF LITE using this link](https://github.com/tensorflow/tensorflow/issues/42114#issuecomment-671593386)), I got the following exception when the app started: \r\n\r\n\r\n```\r\norg.tensorflow.lite.examples.detection E/AndroidRuntime: FATAL EXCEPTION: inference\r\n    Process: org.tensorflow.lite.examples.detection, PID: 5086\r\n    java.lang.IllegalArgumentException: Internal error: Failed to run on the given Interpreter: Regular TensorFlow ops are not supported by this interpreter. Make sure you apply/link the Flex delegate before inference.\r\n    Node number 223 (FlexSize) failed to prepare.\r\n    \r\n        at org.tensorflow.lite.NativeInterpreterWrapper.run(Native Method)\r\n        at org.tensorflow.lite.NativeInterpreterWrapper.run(NativeInterpreterWrapper.java:158)\r\n        at org.tensorflow.lite.Interpreter.runForMultipleInputsOutputs(Interpreter.java:347)\r\n        at org.tensorflow.lite.examples.detection.tflite.TFLiteObjectDetectionAPIModel.recognizeImage(TFLiteObjectDetectionAPIModel.java:196)\r\n        at org.tensorflow.lite.examples.detection.DetectorActivity$2.run(DetectorActivity.java:181)\r\n        at android.os.Handler.handleCallback(Handler.java:938)\r\n        at android.os.Handler.dispatchMessage(Handler.java:99)\r\n        at android.os.Looper.loop(Looper.java:223)\r\n        at android.os.HandlerThread.run(HandlerThread.java:67)\r\n```\r\n\r\n* My tf-Lite model size: 5MB\r\n* The app size on the mobile is about 15 MB\r\n\r\n\r\n### To Solve This Error:\r\n- I include the following dependency on the **build.gradle (Modle app)**:\r\n\r\n```\r\n    // This dependency adds the necessary TF op support.\r\n    implementation 'org.tensorflow:tensorflow-lite-select-tf-ops:0.0.0-nightly'\r\n```\r\n\r\n<img width=\"1019\" alt=\"Screen Shot 2020-08-28 at 3 23 41 PM\" src=\"https://user-images.githubusercontent.com/68266028/91560386-764b9680-e942-11ea-827e-28e2680d866c.png\">\r\n\r\n\r\nThat solves the problem and my object detection app is working very well. \r\n\r\n### However, The app is now 195MB size (storage) on the physical mobile! Does this (-tf-ops) dependency has this large size! If so how can I fix the previous exception without including this dependency in the android app?\r\n\r\n\r\n<img width=\"305\" alt=\"Screen Shot 2020-08-28 at 3 21 26 PM\" src=\"https://user-images.githubusercontent.com/68266028/91560234-266ccf80-e942-11ea-8b08-9ecb6aa2bb5d.png\">\r\n\r\n\r\n\r\n\r\n",
      "reactions": {
        "url": "https://api.github.com/repos/tensorflow/tensorflow/issues/42735/reactions",
        "total_count": 0,
        "+1": 0,
        "-1": 0,
        "laugh": 0,
        "hooray": 0,
        "confused": 0,
        "heart": 0,
        "rocket": 0,
        "eyes": 0
      },
      "timeline_url": "https://api.github.com/repos/tensorflow/tensorflow/issues/42735/timeline",
      "performed_via_github_app": null,
      "score": 1.0
    },
    {
      "url": "https://api.github.com/repos/tensorflow/tensorflow/issues/42723",
      "repository_url": "https://api.github.com/repos/tensorflow/tensorflow",
      "labels_url": "https://api.github.com/repos/tensorflow/tensorflow/issues/42723/labels{/name}",
      "comments_url": "https://api.github.com/repos/tensorflow/tensorflow/issues/42723/comments",
      "events_url": "https://api.github.com/repos/tensorflow/tensorflow/issues/42723/events",
      "html_url": "https://github.com/tensorflow/tensorflow/issues/42723",
      "id": 687897739,
      "node_id": "MDU6SXNzdWU2ODc4OTc3Mzk=",
      "number": 42723,
      "title": "TensorFlow Lite Android nightly method \"runForMultipleInputsOutputs\" that loaded model using stft  not work with converted by tf.lite.OpsSet.SELECT_TF_OPS ",
      "user": {
        "login": "tk-okumura",
        "id": 70365047,
        "node_id": "MDQ6VXNlcjcwMzY1MDQ3",
        "avatar_url": "https://avatars.githubusercontent.com/u/70365047?v=4",
        "gravatar_id": "",
        "url": "https://api.github.com/users/tk-okumura",
        "html_url": "https://github.com/tk-okumura",
        "followers_url": "https://api.github.com/users/tk-okumura/followers",
        "following_url": "https://api.github.com/users/tk-okumura/following{/other_user}",
        "gists_url": "https://api.github.com/users/tk-okumura/gists{/gist_id}",
        "starred_url": "https://api.github.com/users/tk-okumura/starred{/owner}{/repo}",
        "subscriptions_url": "https://api.github.com/users/tk-okumura/subscriptions",
        "organizations_url": "https://api.github.com/users/tk-okumura/orgs",
        "repos_url": "https://api.github.com/users/tk-okumura/repos",
        "events_url": "https://api.github.com/users/tk-okumura/events{/privacy}",
        "received_events_url": "https://api.github.com/users/tk-okumura/received_events",
        "type": "User",
        "site_admin": false
      },
      "labels": [
        {
          "id": 473184161,
          "node_id": "MDU6TGFiZWw0NzMxODQxNjE=",
          "url": "https://api.github.com/repos/tensorflow/tensorflow/labels/type:support",
          "name": "type:support",
          "color": "159b2e",
          "default": false,
          "description": "Support issues"
        },
        {
          "id": 750616506,
          "node_id": "MDU6TGFiZWw3NTA2MTY1MDY=",
          "url": "https://api.github.com/repos/tensorflow/tensorflow/labels/comp:lite",
          "name": "comp:lite",
          "color": "0052cc",
          "default": false,
          "description": "TF Lite related issues"
        },
        {
          "id": 1946362326,
          "node_id": "MDU6TGFiZWwxOTQ2MzYyMzI2",
          "url": "https://api.github.com/repos/tensorflow/tensorflow/labels/TF%202.3",
          "name": "TF 2.3",
          "color": "1d76db",
          "default": false,
          "description": "Issues related to TF 2.3"
        }
      ],
      "state": "closed",
      "locked": false,
      "assignee": {
        "login": "ymodak",
        "id": 42785357,
        "node_id": "MDQ6VXNlcjQyNzg1MzU3",
        "avatar_url": "https://avatars.githubusercontent.com/u/42785357?v=4",
        "gravatar_id": "",
        "url": "https://api.github.com/users/ymodak",
        "html_url": "https://github.com/ymodak",
        "followers_url": "https://api.github.com/users/ymodak/followers",
        "following_url": "https://api.github.com/users/ymodak/following{/other_user}",
        "gists_url": "https://api.github.com/users/ymodak/gists{/gist_id}",
        "starred_url": "https://api.github.com/users/ymodak/starred{/owner}{/repo}",
        "subscriptions_url": "https://api.github.com/users/ymodak/subscriptions",
        "organizations_url": "https://api.github.com/users/ymodak/orgs",
        "repos_url": "https://api.github.com/users/ymodak/repos",
        "events_url": "https://api.github.com/users/ymodak/events{/privacy}",
        "received_events_url": "https://api.github.com/users/ymodak/received_events",
        "type": "User",
        "site_admin": false
      },
      "assignees": [
        {
          "login": "ymodak",
          "id": 42785357,
          "node_id": "MDQ6VXNlcjQyNzg1MzU3",
          "avatar_url": "https://avatars.githubusercontent.com/u/42785357?v=4",
          "gravatar_id": "",
          "url": "https://api.github.com/users/ymodak",
          "html_url": "https://github.com/ymodak",
          "followers_url": "https://api.github.com/users/ymodak/followers",
          "following_url": "https://api.github.com/users/ymodak/following{/other_user}",
          "gists_url": "https://api.github.com/users/ymodak/gists{/gist_id}",
          "starred_url": "https://api.github.com/users/ymodak/starred{/owner}{/repo}",
          "subscriptions_url": "https://api.github.com/users/ymodak/subscriptions",
          "organizations_url": "https://api.github.com/users/ymodak/orgs",
          "repos_url": "https://api.github.com/users/ymodak/repos",
          "events_url": "https://api.github.com/users/ymodak/events{/privacy}",
          "received_events_url": "https://api.github.com/users/ymodak/received_events",
          "type": "User",
          "site_admin": false
        }
      ],
      "milestone": null,
      "comments": 5,
      "created_at": "2020-08-28T08:16:42Z",
      "updated_at": "2020-12-10T03:53:46Z",
      "closed_at": "2020-12-10T03:52:40Z",
      "author_association": "NONE",
      "active_lock_reason": null,
      "body": "TensorFlow Lite Android nightly method \"runForMultipleInputsOutputs\" that loaded model using stft  not work with converted by tf.lite.OpsSet.SELECT_TF_OPS .\r\nWhat is wrong ?\r\n\r\nwritten code.\r\n> import numpy as np\r\n> import tensorflow as tf\r\n> from tensorflow.keras.layers import Input, Dense, Dropout\r\n> from tensorflow.keras.layers import Conv2D, MaxPool2D,Flatten\r\n> from tensorflow.keras.layers import BatchNormalization,Activation,Add,GlobalAveragePooling2D,Reshape\r\n> from tensorflow.keras.models import Model\r\n> \r\n> _FFT_SIZE=512\r\n> _HOP_SIZE=256\r\n> _N_MEL_BINS=128\r\n> \r\n> class LogMelSpectrogram(tf.keras.layers.Layer):\r\n>     \"\"\"Compute log-magnitude mel-scaled spectrograms.\"\"\"\r\n> \r\n>     def __init__(self, sample_rate, fft_size, hop_size, n_mels,\r\n>                  f_min=0.0, f_max=None, **kwargs):\r\n>         super(LogMelSpectrogram, self).__init__(**kwargs)\r\n>         self.sample_rate = sample_rate\r\n>         self.fft_size = fft_size\r\n>         self.hop_size = hop_size\r\n>         self.n_mels = n_mels\r\n>         self.f_min = f_min\r\n>         self.f_max = f_max if f_max else sample_rate / 2\r\n>         self.mel_filterbank = tf.signal.linear_to_mel_weight_matrix(\r\n>             num_mel_bins=self.n_mels,\r\n>             num_spectrogram_bins=fft_size // 2 + 1,\r\n>             sample_rate=self.sample_rate,\r\n>             lower_edge_hertz=self.f_min,\r\n>             upper_edge_hertz=self.f_max)\r\n> \r\n>     def build(self, input_shape):\r\n>         self.non_trainable_weights.append(self.mel_filterbank)\r\n>         super(LogMelSpectrogram, self).build(input_shape)\r\n> \r\n>     def call(self, waveforms):\r\n>         \"\"\"Forward pass.\r\n>         Parameters\r\n>         ----------\r\n>         waveforms : tf.Tensor, shape = (None, n_samples)\r\n>             A Batch of mono waveforms.\r\n>         Returns\r\n>         -------\r\n>         log_mel_spectrograms : (tf.Tensor), shape = (None, time, freq, ch)\r\n>             The corresponding batch of log-mel-spectrograms\r\n>         \"\"\"\r\n>         def _tf_log10(x):\r\n>             numerator = tf.math.log(x)\r\n>             denominator = tf.math.log(tf.constant(10, dtype=numerator.dtype))\r\n>             return numerator / denominator\r\n> \r\n>         def power_to_db(magnitude, amin=1e-16, top_db=80.0):\r\n>             \"\"\"\r\n>             https://librosa.github.io/librosa/generated/librosa.core.power_to_db.html\r\n>             \"\"\"\r\n>             ref_value = tf.reduce_max(magnitude)\r\n>             log_spec = 10.0 * _tf_log10(tf.maximum(amin, magnitude))\r\n>             log_spec -= 10.0 * _tf_log10(tf.maximum(amin, ref_value))\r\n>             log_spec = tf.maximum(log_spec, tf.reduce_max(log_spec) - top_db)\r\n> \r\n>             return log_spec\r\n> \r\n>         spectrograms = tf.signal.stft(waveforms,\r\n>                                       frame_length=self.fft_size,\r\n>                                       frame_step=self.hop_size,\r\n>                                       pad_end=False)\r\n> \r\n>         magnitude_spectrograms = tf.abs(spectrograms)\r\n> \r\n>         mel_spectrograms = tf.matmul(tf.square(magnitude_spectrograms),\r\n>                                      self.mel_filterbank)\r\n> \r\n>         log_mel_spectrograms = power_to_db(mel_spectrograms)\r\n> \r\n>         # add channel dimension\r\n>         log_mel_spectrograms = tf.expand_dims(log_mel_spectrograms, 3)\r\n> \r\n>         return log_mel_spectrograms\r\n> \r\n>     def get_config(self):\r\n>         config = {\r\n>             'fft_size': self.fft_size,\r\n>             'hop_size': self.hop_size,\r\n>             'n_mels': self.n_mels,\r\n>             'sample_rate': self.sample_rate,\r\n>             'f_min': self.f_min,\r\n>             'f_max': self.f_max,\r\n>         }\r\n>         config.update(super(LogMelSpectrogram, self).get_config())\r\n> \r\n>         return config\r\n> \r\n> \r\n> \r\n> def GetModel(n_classes, sample_rate=16000, duration=4,\r\n>               fft_size=_FFT_SIZE, hop_size=_HOP_SIZE, n_mels=_N_MEL_BINS):\r\n>     n_samples = sample_rate * duration\r\n>     input_data = Input(shape=(n_samples,), name='input', dtype='float32')\r\n>     freq = Input(name='freq',shape=[1],dtype='int32')\r\n>     x = input_data\r\n>     test_output = LogMelSpectrogram(sample_rate, fft_size, hop_size, n_mels)(x)\r\n>     x = Dense(n_classes,activation='softmax')(x)\r\n> \r\n>     return Model(inputs=[input_data,freq], outputs=x)\r\n> \r\n\r\nconvert model to tflite with tf.lite.OpsSet.SELECT_TF_OPS\r\n> N_classes = 50\r\n> Duration = 5\r\n> \r\n> model = GetModel(N_classes,duration=Duration)\r\n> opt = tf.keras.optimizers.Adam(lr=0.001, decay=1e-6, amsgrad=True)\r\n> model.compile(loss='categorical_crossentropy',\r\n>           optimizer=opt,\r\n>           metrics=['accuracy'])\r\n> model.summary()\r\n> \r\n> \r\n> converter = tf.lite.TFLiteConverter.from_keras_model(model)\r\n> \r\n> #converter.target_spec.supported_ops = [tf.lite.OpsSet.TFLITE_BUILTINS]\r\n> #converter.target_spec.supported_ops = [tf.lite.OpsSet.TFLITE_BUILTINS, tf.lite.OpsSet.SELECT_TF_OPS]\r\n> converter.target_spec.supported_ops = [tf.lite.OpsSet.SELECT_TF_OPS]\r\n> \r\n> tflite_model = converter.convert()\r\n> with open(\"model.tflite\", \"wb\") as f:\r\n>     f.write(tflite_model)\r\n\r\non Centos , tflite invoke from python is work.\r\n>   input_data = np.zeros(input_shape, dtype=np.float32)\r\n>   pprint(\"input_data\")\r\n>   pprint(input_data)\r\n>   input_data[0][0:] = x2\r\n>   npa = np.array([[0]], dtype=np.int32) \r\n>   npa[0] = 16000\r\n> \r\n>   print(f\"input_details[0]:{input_details[0]}\")\r\n>   print(f\"input_details[1]:{input_details[1]}\")\r\n> \r\n>   interpreter.set_tensor(input_details[0]['index'], input_data)\r\n>   interpreter.set_tensor(input_details[1]['index'], npa)\r\n> \r\n>   interpreter.invoke()\r\n>   output_data = interpreter.get_tensor(output_details[0]['index'])\r\n>   print(\"output_data:\")\r\n>   pprint(output_data)\r\n> \r\n\r\nResults:\r\n> array([[0.01259949, 0.01274813, 0.02341373, 0.02667766, 0.01372223,\r\n>         0.02063654, 0.01939304, 0.01231323, 0.02360482, 0.01985866,\r\n>         0.01616379, 0.02790864, 0.01614609, 0.03300844, 0.02038008,\r\n>         0.02689514, 0.01205852, 0.02373471, 0.03396689, 0.0159423 ,\r\n>         0.01418541, 0.01825977, 0.01506583, 0.01811898, 0.0167273 ,\r\n>         0.01219947, 0.03590814, 0.01607339, 0.0213427 , 0.02323929,\r\n>         0.01976353, 0.01719474, 0.02329947, 0.02231019, 0.02448872,\r\n>         0.01822161, 0.01806694, 0.02725129, 0.0257786 , 0.02799631,\r\n>         0.02095988, 0.01663861, 0.01729359, 0.0102047 , 0.01404527,\r\n>         0.01819064, 0.0125629 , 0.01387509, 0.01704353, 0.032522  ]],\r\n>       dtype=float32)\r\n>\r\n\r\non Android , Kotlin\r\n>tfLite!!.runForMultipleInputsOutputs(inputArray, outputs) \r\n\r\nexample 1\r\n>Internal error: Failed to run on the given Interpreter: Matrix size-incompatible: In[0]: [80000,1], In[1]: [80000,50]\r\n>    \t (while executing 'MatMul' via Eager)\r\n\r\nexample 2\r\n>Cannot copy from a TensorFlowLite tensor (Identity) with shape [80000, 50] to a Java object with shape [1, 50].\r\n\r\n",
      "reactions": {
        "url": "https://api.github.com/repos/tensorflow/tensorflow/issues/42723/reactions",
        "total_count": 0,
        "+1": 0,
        "-1": 0,
        "laugh": 0,
        "hooray": 0,
        "confused": 0,
        "heart": 0,
        "rocket": 0,
        "eyes": 0
      },
      "timeline_url": "https://api.github.com/repos/tensorflow/tensorflow/issues/42723/timeline",
      "performed_via_github_app": null,
      "score": 1.0
    },
    {
      "url": "https://api.github.com/repos/tensorflow/tensorflow/issues/42707",
      "repository_url": "https://api.github.com/repos/tensorflow/tensorflow",
      "labels_url": "https://api.github.com/repos/tensorflow/tensorflow/issues/42707/labels{/name}",
      "comments_url": "https://api.github.com/repos/tensorflow/tensorflow/issues/42707/comments",
      "events_url": "https://api.github.com/repos/tensorflow/tensorflow/issues/42707/events",
      "html_url": "https://github.com/tensorflow/tensorflow/issues/42707",
      "id": 687233087,
      "node_id": "MDU6SXNzdWU2ODcyMzMwODc=",
      "number": 42707,
      "title": "Post Quantization with TensorFlow in Python",
      "user": {
        "login": "giahi",
        "id": 44967423,
        "node_id": "MDQ6VXNlcjQ0OTY3NDIz",
        "avatar_url": "https://avatars.githubusercontent.com/u/44967423?v=4",
        "gravatar_id": "",
        "url": "https://api.github.com/users/giahi",
        "html_url": "https://github.com/giahi",
        "followers_url": "https://api.github.com/users/giahi/followers",
        "following_url": "https://api.github.com/users/giahi/following{/other_user}",
        "gists_url": "https://api.github.com/users/giahi/gists{/gist_id}",
        "starred_url": "https://api.github.com/users/giahi/starred{/owner}{/repo}",
        "subscriptions_url": "https://api.github.com/users/giahi/subscriptions",
        "organizations_url": "https://api.github.com/users/giahi/orgs",
        "repos_url": "https://api.github.com/users/giahi/repos",
        "events_url": "https://api.github.com/users/giahi/events{/privacy}",
        "received_events_url": "https://api.github.com/users/giahi/received_events",
        "type": "User",
        "site_admin": false
      },
      "labels": [
        {
          "id": 473184161,
          "node_id": "MDU6TGFiZWw0NzMxODQxNjE=",
          "url": "https://api.github.com/repos/tensorflow/tensorflow/labels/type:support",
          "name": "type:support",
          "color": "159b2e",
          "default": false,
          "description": "Support issues"
        },
        {
          "id": 750616506,
          "node_id": "MDU6TGFiZWw3NTA2MTY1MDY=",
          "url": "https://api.github.com/repos/tensorflow/tensorflow/labels/comp:lite",
          "name": "comp:lite",
          "color": "0052cc",
          "default": false,
          "description": "TF Lite related issues"
        }
      ],
      "state": "closed",
      "locked": false,
      "assignee": {
        "login": "amahendrakar",
        "id": 57165142,
        "node_id": "MDQ6VXNlcjU3MTY1MTQy",
        "avatar_url": "https://avatars.githubusercontent.com/u/57165142?v=4",
        "gravatar_id": "",
        "url": "https://api.github.com/users/amahendrakar",
        "html_url": "https://github.com/amahendrakar",
        "followers_url": "https://api.github.com/users/amahendrakar/followers",
        "following_url": "https://api.github.com/users/amahendrakar/following{/other_user}",
        "gists_url": "https://api.github.com/users/amahendrakar/gists{/gist_id}",
        "starred_url": "https://api.github.com/users/amahendrakar/starred{/owner}{/repo}",
        "subscriptions_url": "https://api.github.com/users/amahendrakar/subscriptions",
        "organizations_url": "https://api.github.com/users/amahendrakar/orgs",
        "repos_url": "https://api.github.com/users/amahendrakar/repos",
        "events_url": "https://api.github.com/users/amahendrakar/events{/privacy}",
        "received_events_url": "https://api.github.com/users/amahendrakar/received_events",
        "type": "User",
        "site_admin": false
      },
      "assignees": [
        {
          "login": "amahendrakar",
          "id": 57165142,
          "node_id": "MDQ6VXNlcjU3MTY1MTQy",
          "avatar_url": "https://avatars.githubusercontent.com/u/57165142?v=4",
          "gravatar_id": "",
          "url": "https://api.github.com/users/amahendrakar",
          "html_url": "https://github.com/amahendrakar",
          "followers_url": "https://api.github.com/users/amahendrakar/followers",
          "following_url": "https://api.github.com/users/amahendrakar/following{/other_user}",
          "gists_url": "https://api.github.com/users/amahendrakar/gists{/gist_id}",
          "starred_url": "https://api.github.com/users/amahendrakar/starred{/owner}{/repo}",
          "subscriptions_url": "https://api.github.com/users/amahendrakar/subscriptions",
          "organizations_url": "https://api.github.com/users/amahendrakar/orgs",
          "repos_url": "https://api.github.com/users/amahendrakar/repos",
          "events_url": "https://api.github.com/users/amahendrakar/events{/privacy}",
          "received_events_url": "https://api.github.com/users/amahendrakar/received_events",
          "type": "User",
          "site_admin": false
        }
      ],
      "milestone": null,
      "comments": 3,
      "created_at": "2020-08-27T13:13:50Z",
      "updated_at": "2020-09-12T09:20:34Z",
      "closed_at": "2020-09-10T17:16:28Z",
      "author_association": "NONE",
      "active_lock_reason": null,
      "body": "I am totally beginner in Python and I have a Convolutional Neural Network which consists of some conv1D maxpooling1D and dense layers\r\n\r\nI need to Quantize this model to integer for running on FPGA\r\n\r\nI follow post-Quantization trough this link: https://www.tensorflow.org/lite/performance/post_training_integer_quant\r\n\r\nBut I got a strange error which is:\r\n\r\nRuntimeError: tensorflow/lite/kernels/conv.cc:316 input->dims->data[3] != filter->dims->data[3] (4 != 3)Node number 1 (CONV_2D) failed to prepare\r\n\r\nBut I don’t have any conv2D at all.\r\n\r\nI would be very grateful if anyone can help me.",
      "reactions": {
        "url": "https://api.github.com/repos/tensorflow/tensorflow/issues/42707/reactions",
        "total_count": 0,
        "+1": 0,
        "-1": 0,
        "laugh": 0,
        "hooray": 0,
        "confused": 0,
        "heart": 0,
        "rocket": 0,
        "eyes": 0
      },
      "timeline_url": "https://api.github.com/repos/tensorflow/tensorflow/issues/42707/timeline",
      "performed_via_github_app": null,
      "score": 1.0
    },
    {
      "url": "https://api.github.com/repos/tensorflow/tensorflow/issues/42684",
      "repository_url": "https://api.github.com/repos/tensorflow/tensorflow",
      "labels_url": "https://api.github.com/repos/tensorflow/tensorflow/issues/42684/labels{/name}",
      "comments_url": "https://api.github.com/repos/tensorflow/tensorflow/issues/42684/comments",
      "events_url": "https://api.github.com/repos/tensorflow/tensorflow/issues/42684/events",
      "html_url": "https://github.com/tensorflow/tensorflow/issues/42684",
      "id": 686524711,
      "node_id": "MDU6SXNzdWU2ODY1MjQ3MTE=",
      "number": 42684,
      "title": "Timing Discrepency betweeen Tflite Benchmarking Tool and Android Studio Inference Time",
      "user": {
        "login": "dhruv-arcot",
        "id": 41303501,
        "node_id": "MDQ6VXNlcjQxMzAzNTAx",
        "avatar_url": "https://avatars.githubusercontent.com/u/41303501?v=4",
        "gravatar_id": "",
        "url": "https://api.github.com/users/dhruv-arcot",
        "html_url": "https://github.com/dhruv-arcot",
        "followers_url": "https://api.github.com/users/dhruv-arcot/followers",
        "following_url": "https://api.github.com/users/dhruv-arcot/following{/other_user}",
        "gists_url": "https://api.github.com/users/dhruv-arcot/gists{/gist_id}",
        "starred_url": "https://api.github.com/users/dhruv-arcot/starred{/owner}{/repo}",
        "subscriptions_url": "https://api.github.com/users/dhruv-arcot/subscriptions",
        "organizations_url": "https://api.github.com/users/dhruv-arcot/orgs",
        "repos_url": "https://api.github.com/users/dhruv-arcot/repos",
        "events_url": "https://api.github.com/users/dhruv-arcot/events{/privacy}",
        "received_events_url": "https://api.github.com/users/dhruv-arcot/received_events",
        "type": "User",
        "site_admin": false
      },
      "labels": [
        {
          "id": 404586594,
          "node_id": "MDU6TGFiZWw0MDQ1ODY1OTQ=",
          "url": "https://api.github.com/repos/tensorflow/tensorflow/labels/stat:awaiting%20tensorflower",
          "name": "stat:awaiting tensorflower",
          "color": "f4b400",
          "default": false,
          "description": "Status  - Awaiting response from tensorflower"
        },
        {
          "id": 750616506,
          "node_id": "MDU6TGFiZWw3NTA2MTY1MDY=",
          "url": "https://api.github.com/repos/tensorflow/tensorflow/labels/comp:lite",
          "name": "comp:lite",
          "color": "0052cc",
          "default": false,
          "description": "TF Lite related issues"
        },
        {
          "id": 1463677878,
          "node_id": "MDU6TGFiZWwxNDYzNjc3ODc4",
          "url": "https://api.github.com/repos/tensorflow/tensorflow/labels/type:performance",
          "name": "type:performance",
          "color": "159b2e",
          "default": false,
          "description": "Performance Issue"
        },
        {
          "id": 1548890241,
          "node_id": "MDU6TGFiZWwxNTQ4ODkwMjQx",
          "url": "https://api.github.com/repos/tensorflow/tensorflow/labels/TF%201.15",
          "name": "TF 1.15",
          "color": "e99695",
          "default": false,
          "description": "for issues seen on TF 1.15"
        }
      ],
      "state": "closed",
      "locked": false,
      "assignee": {
        "login": "multiverse-tf",
        "id": 48348070,
        "node_id": "MDQ6VXNlcjQ4MzQ4MDcw",
        "avatar_url": "https://avatars.githubusercontent.com/u/48348070?v=4",
        "gravatar_id": "",
        "url": "https://api.github.com/users/multiverse-tf",
        "html_url": "https://github.com/multiverse-tf",
        "followers_url": "https://api.github.com/users/multiverse-tf/followers",
        "following_url": "https://api.github.com/users/multiverse-tf/following{/other_user}",
        "gists_url": "https://api.github.com/users/multiverse-tf/gists{/gist_id}",
        "starred_url": "https://api.github.com/users/multiverse-tf/starred{/owner}{/repo}",
        "subscriptions_url": "https://api.github.com/users/multiverse-tf/subscriptions",
        "organizations_url": "https://api.github.com/users/multiverse-tf/orgs",
        "repos_url": "https://api.github.com/users/multiverse-tf/repos",
        "events_url": "https://api.github.com/users/multiverse-tf/events{/privacy}",
        "received_events_url": "https://api.github.com/users/multiverse-tf/received_events",
        "type": "User",
        "site_admin": false
      },
      "assignees": [
        {
          "login": "multiverse-tf",
          "id": 48348070,
          "node_id": "MDQ6VXNlcjQ4MzQ4MDcw",
          "avatar_url": "https://avatars.githubusercontent.com/u/48348070?v=4",
          "gravatar_id": "",
          "url": "https://api.github.com/users/multiverse-tf",
          "html_url": "https://github.com/multiverse-tf",
          "followers_url": "https://api.github.com/users/multiverse-tf/followers",
          "following_url": "https://api.github.com/users/multiverse-tf/following{/other_user}",
          "gists_url": "https://api.github.com/users/multiverse-tf/gists{/gist_id}",
          "starred_url": "https://api.github.com/users/multiverse-tf/starred{/owner}{/repo}",
          "subscriptions_url": "https://api.github.com/users/multiverse-tf/subscriptions",
          "organizations_url": "https://api.github.com/users/multiverse-tf/orgs",
          "repos_url": "https://api.github.com/users/multiverse-tf/repos",
          "events_url": "https://api.github.com/users/multiverse-tf/events{/privacy}",
          "received_events_url": "https://api.github.com/users/multiverse-tf/received_events",
          "type": "User",
          "site_admin": false
        }
      ],
      "milestone": null,
      "comments": 1,
      "created_at": "2020-08-26T18:23:22Z",
      "updated_at": "2021-02-09T05:45:23Z",
      "closed_at": "2021-02-09T05:45:23Z",
      "author_association": "NONE",
      "active_lock_reason": null,
      "body": "<em>Please make sure that this is an issue related to performance of TensorFlow.\r\nAs per our\r\n[GitHub Policy](https://github.com/tensorflow/tensorflow/blob/master/ISSUES.md),\r\nwe only address code/doc bugs, performance issues, feature requests and\r\nbuild/installation issues on GitHub. tag:performance_template</em>\r\n\r\n**System information**\r\n- Have I written custom code (as opposed to using a stock example script provided in TensorFlow):\r\n- OS Platform and Distribution (e.g., Linux Ubuntu 16.04):\r\n- Mobile device (e.g. iPhone 8, Pixel 2, Samsung Galaxy) if the issue happens on mobile device:\r\n- TensorFlow installed from (source or binary): Source\r\n- TensorFlow version (use command below): 1.15\r\n- Python version: 3.6\r\n- Bazel version (if compiling from source):\r\n- GCC/Compiler version (if compiling from source):\r\n- CUDA/cuDNN version:\r\n- GPU model and memory:\r\n\r\nYou can collect some of this information using our environment capture\r\n[script](https://github.com/tensorflow/tensorflow/tree/master/tools/tf_env_collect.sh)\r\nYou can also obtain the TensorFlow version with:\r\n1. TF 1.0: `python -c \"import tensorflow as tf; print(tf.GIT_VERSION, tf.VERSION)\"`\r\n2. TF 2.0: `python -c \"import tensorflow as tf; print(tf.version.GIT_VERSION, tf.version.VERSION)\"`\r\n\r\n**Describe the current behavior**\r\nWhile Benchmarking the model using the benchmarking tool the timing reported did not match that as viewed while running inference on the model on an APK. In almost all instances, the timing reported was almost twice as that seen on the Benchmarking tool. The GPU delegate is used to run inference on this model. \r\nTo measure timing on the APK we employed both the methods. \r\ni) Using the getLastNativeInferenceDurationNanoseconds() function provided by Tflite\r\nii) Using the SystemClock.uptimeMillis() function provided in the os.SystemClock library. \r\n   The code for the same is:\r\n            long str_time = SystemClock.uptimeMillis();\r\n            tflite_intep.run(inp,out);\r\n            System.out.println(\"Inference Time :\"+(SystemClock.uptimeMillis()-str_time)); \r\n\r\nIn this instance the output from both the getLastNativeInferenceDurationNanoseconds() as well as the Benchmarking tool is 35.421 ms while that shown in the logcat from the SystemClock function is 70.33 ms. \r\n\r\n\r\n**Describe the expected behavior**\r\n\r\nThe timing shown in all 3 scenarios need to match or at least be within a reasonable amount from each other. \r\n\r\n\r\n**Standalone code to reproduce the issue**\r\nProvide a reproducible test case that is the bare minimum necessary to generate\r\nthe problem. If possible, please share a link to Colab/Jupyter/any notebook.\r\n\r\n**Other info / logs** Include any logs or source code that would be helpful to\r\ndiagnose the problem. If including tracebacks, please include the full\r\ntraceback. Large logs and files should be attached.\r\n\r\n\r\nPlease do let me know if any furthur information is needed. ",
      "reactions": {
        "url": "https://api.github.com/repos/tensorflow/tensorflow/issues/42684/reactions",
        "total_count": 0,
        "+1": 0,
        "-1": 0,
        "laugh": 0,
        "hooray": 0,
        "confused": 0,
        "heart": 0,
        "rocket": 0,
        "eyes": 0
      },
      "timeline_url": "https://api.github.com/repos/tensorflow/tensorflow/issues/42684/timeline",
      "performed_via_github_app": null,
      "score": 1.0
    },
    {
      "url": "https://api.github.com/repos/tensorflow/tensorflow/issues/42655",
      "repository_url": "https://api.github.com/repos/tensorflow/tensorflow",
      "labels_url": "https://api.github.com/repos/tensorflow/tensorflow/issues/42655/labels{/name}",
      "comments_url": "https://api.github.com/repos/tensorflow/tensorflow/issues/42655/comments",
      "events_url": "https://api.github.com/repos/tensorflow/tensorflow/issues/42655/events",
      "html_url": "https://github.com/tensorflow/tensorflow/issues/42655",
      "id": 685505970,
      "node_id": "MDU6SXNzdWU2ODU1MDU5NzA=",
      "number": 42655,
      "title": "Cannot see per operator profiling in android studio with tensorflow lite models",
      "user": {
        "login": "anidh",
        "id": 17473554,
        "node_id": "MDQ6VXNlcjE3NDczNTU0",
        "avatar_url": "https://avatars.githubusercontent.com/u/17473554?v=4",
        "gravatar_id": "",
        "url": "https://api.github.com/users/anidh",
        "html_url": "https://github.com/anidh",
        "followers_url": "https://api.github.com/users/anidh/followers",
        "following_url": "https://api.github.com/users/anidh/following{/other_user}",
        "gists_url": "https://api.github.com/users/anidh/gists{/gist_id}",
        "starred_url": "https://api.github.com/users/anidh/starred{/owner}{/repo}",
        "subscriptions_url": "https://api.github.com/users/anidh/subscriptions",
        "organizations_url": "https://api.github.com/users/anidh/orgs",
        "repos_url": "https://api.github.com/users/anidh/repos",
        "events_url": "https://api.github.com/users/anidh/events{/privacy}",
        "received_events_url": "https://api.github.com/users/anidh/received_events",
        "type": "User",
        "site_admin": false
      },
      "labels": [
        {
          "id": 473184161,
          "node_id": "MDU6TGFiZWw0NzMxODQxNjE=",
          "url": "https://api.github.com/repos/tensorflow/tensorflow/labels/type:support",
          "name": "type:support",
          "color": "159b2e",
          "default": false,
          "description": "Support issues"
        },
        {
          "id": 750616506,
          "node_id": "MDU6TGFiZWw3NTA2MTY1MDY=",
          "url": "https://api.github.com/repos/tensorflow/tensorflow/labels/comp:lite",
          "name": "comp:lite",
          "color": "0052cc",
          "default": false,
          "description": "TF Lite related issues"
        },
        {
          "id": 1548890241,
          "node_id": "MDU6TGFiZWwxNTQ4ODkwMjQx",
          "url": "https://api.github.com/repos/tensorflow/tensorflow/labels/TF%201.15",
          "name": "TF 1.15",
          "color": "e99695",
          "default": false,
          "description": "for issues seen on TF 1.15"
        }
      ],
      "state": "closed",
      "locked": false,
      "assignee": {
        "login": "hajuho",
        "id": 12150373,
        "node_id": "MDQ6VXNlcjEyMTUwMzcz",
        "avatar_url": "https://avatars.githubusercontent.com/u/12150373?v=4",
        "gravatar_id": "",
        "url": "https://api.github.com/users/hajuho",
        "html_url": "https://github.com/hajuho",
        "followers_url": "https://api.github.com/users/hajuho/followers",
        "following_url": "https://api.github.com/users/hajuho/following{/other_user}",
        "gists_url": "https://api.github.com/users/hajuho/gists{/gist_id}",
        "starred_url": "https://api.github.com/users/hajuho/starred{/owner}{/repo}",
        "subscriptions_url": "https://api.github.com/users/hajuho/subscriptions",
        "organizations_url": "https://api.github.com/users/hajuho/orgs",
        "repos_url": "https://api.github.com/users/hajuho/repos",
        "events_url": "https://api.github.com/users/hajuho/events{/privacy}",
        "received_events_url": "https://api.github.com/users/hajuho/received_events",
        "type": "User",
        "site_admin": false
      },
      "assignees": [
        {
          "login": "hajuho",
          "id": 12150373,
          "node_id": "MDQ6VXNlcjEyMTUwMzcz",
          "avatar_url": "https://avatars.githubusercontent.com/u/12150373?v=4",
          "gravatar_id": "",
          "url": "https://api.github.com/users/hajuho",
          "html_url": "https://github.com/hajuho",
          "followers_url": "https://api.github.com/users/hajuho/followers",
          "following_url": "https://api.github.com/users/hajuho/following{/other_user}",
          "gists_url": "https://api.github.com/users/hajuho/gists{/gist_id}",
          "starred_url": "https://api.github.com/users/hajuho/starred{/owner}{/repo}",
          "subscriptions_url": "https://api.github.com/users/hajuho/subscriptions",
          "organizations_url": "https://api.github.com/users/hajuho/orgs",
          "repos_url": "https://api.github.com/users/hajuho/repos",
          "events_url": "https://api.github.com/users/hajuho/events{/privacy}",
          "received_events_url": "https://api.github.com/users/hajuho/received_events",
          "type": "User",
          "site_admin": false
        }
      ],
      "milestone": null,
      "comments": 8,
      "created_at": "2020-08-25T13:54:38Z",
      "updated_at": "2020-09-12T07:19:57Z",
      "closed_at": "2020-09-12T07:19:56Z",
      "author_association": "NONE",
      "active_lock_reason": null,
      "body": "## URL(s) with the issue:\r\n\r\nPlease provide a link to the documentation entry, for example:\r\n\r\nhttps://www.tensorflow.org/lite/performance/measurement#adding_trace_events_in_java_code\r\n\r\nhttps://www.tensorflow.org/lite/performance/images/as_traces.png\r\n\r\n## Description of issue (what needs changing):\r\n\r\nI've added the trace sections to the code around the ``` interpreter.run() ``` command. When I start to profile the app I cannot see \r\nthe per operator profiling as we can see in the second link.\r\n\r\n### Clear description\r\n\r\nThis will help us in seeing how much time is being taken by each layer in the tflite model and we can change our models\r\naccording to that.\r\n\r\n### My Code\r\n\r\n``` \r\nTrace.beginSection(\"runInference\");\r\n tflite_sr.run(ybuffer,sr_y_channel);\r\n Trace.endSection(); \r\n```",
      "reactions": {
        "url": "https://api.github.com/repos/tensorflow/tensorflow/issues/42655/reactions",
        "total_count": 0,
        "+1": 0,
        "-1": 0,
        "laugh": 0,
        "hooray": 0,
        "confused": 0,
        "heart": 0,
        "rocket": 0,
        "eyes": 0
      },
      "timeline_url": "https://api.github.com/repos/tensorflow/tensorflow/issues/42655/timeline",
      "performed_via_github_app": null,
      "score": 1.0
    }
  ]
}
