…
e is a list of builtin operators you are using: CONV_2D, FULLY_CONNECTED, MAX_POOL_2D, SOFTMAX. Here is a list of operators for which you will need custom implementations: IdentityN.\r\n```\r\n\r\n```\r\nModel: \"model_1\"\r\n_________________________________________________________________\r\nLayer (type)                 Output Shape              Param #   \r\n=================================================================\r\ninput_2 (InputLayer)         [(None, 256, 256, 3)]     0         \r\n_________________________________________________________________\r\nblock1_conv1 (Conv2D)        (None, 256, 256, 64)      1792      \r\n_________________________________________________________________\r\nblock1_conv2 (Conv2D)        (None, 256, 256, 64)      36928     \r\n_________________________________________________________________\r\nblock1_pool (MaxPooling2D)   (None, 128, 128, 64)      0         \r\n_________________________________________________________________\r\nblock2_conv1 (Conv2D)        (None, 128, 128, 128)     73856     \r\n_________________________________________________________________\r\nblock2_conv2 (Conv2D)        (None, 128, 128, 128)     147584    \r\n_________________________________________________________________\r\nblock2_pool (MaxPooling2D)   (None, 64, 64, 128)       0         \r\n_________________________________________________________________\r\nblock3_conv1 (Conv2D)        (None, 64, 64, 256)       295168    \r\n_________________________________________________________________\r\nblock3_conv2 (Conv2D)        (None, 64, 64, 256)       590080    \r\n_________________________________________________________________\r\nblock3_conv3 (Conv2D)        (None, 64, 64, 256)       590080    \r\n_________________________________________________________________\r\nblock3_conv4 (Conv2D)        (None, 64, 64, 256)       590080    \r\n_________________________________________________________________\r\nblock3_pool (MaxPooling2D)   (None, 32, 32, 256)       0         \r\n_________________________________________________________________\r\nblock4_conv1 (Conv2D)        (None, 32, 32, 512)       1180160   \r\n_________________________________________________________________\r\nblock4_conv2 (Conv2D)        (None, 32, 32, 512)       2359808   \r\n_________________________________________________________________\r\nblock4_conv3 (Conv2D)        (None, 32, 32, 512)       2359808   \r\n_________________________________________________________________\r\nblock4_conv4 (Conv2D)        (None, 32, 32, 512)       2359808   \r\n_________________________________________________________________\r\nblock4_pool (MaxPooling2D)   (None, 16, 16, 512)       0         \r\n_________________________________________________________________\r\nblock5_conv1 (Conv2D)        (None, 16, 16, 512)       2359808   \r\n_________________________________________________________________\r\nblock5_conv2 (Conv2D)        (None, 16, 16, 512)       2359808   \r\n_________________________________________________________________\r\nblock5_conv3 (Conv2D)        (None, 16, 16, 512)       2359808   \r\n_________________________________________________________________\r\nblock5_conv4 (Conv2D)        (None, 16, 16, 512)       2359808   \r\n_________________________________________________________________\r\nblock5_pool (MaxPooling2D)   (None, 8, 8, 512)         0         \r\n_________________________________________________________________\r\nflatten_1 (Flatten)          (None, 32768)             0         \r\n_________________________________________________________________\r\ndense_3 (Dense)              (None, 2048)              67110912  \r\n_________________________________________________________________\r\ndropout_2 (Dropout)          (None, 2048)              0         \r\n_________________________________________________________________\r\ndense_4 (Dense)              (None, 1024)              2098176   \r\n_________________________________________________________________\r\ndropout_3 (Dropout)          (None, 1024)              0         \r\n_________________________________________________________________\r\ndense_5 (Dense)              (None, 2)                 2050      \r\n=================================================================\r\nTotal params: 89,235,522\r\nTrainable params: 69,211,138\r\nNon-trainable params: 20,024,384\r\n_________________________________________________________________\r\n```\r\n\r\n**Any other info / logs**\r\n\r\nInclude any logs or source code that would be helpful to diagnose the problem. If including tracebacks, please i
…
